models/market_predictor/AAPL_lstm_model.pth (torch, 220914 bytes, 12 tensors)

lstm.weight_ih_l0 f4 [256, 7]
-0.061143946 0.010400082 -0.08847795 0.021725323 -0.010962328 0.08148397 0.07891738 -0.03811732
0.13299207 0.071740925 0.10548949 -0.04002369 -0.036195636 -0.051536016 0.0101131145 -0.062248208
0.0032687197 0.119737424 0.052874018 -0.052742213 -0.016712265 0.01772627 -0.17617925 -0.12174245
-0.10211087 -0.03041963 -0.024297792 -0.038358178 -0.0072336956 -0.062234376 -0.11527338 -0.12775628
-0.15684056 0.099343 -0.008591452 -0.08614003 -0.036263086 0.06353925 0.12723063 -0.019654253
0.052495267 0.1307657 -0.04957992 -0.015160257 -0.06726511 0.086832814 -0.054736886 -0.0882321
-0.09638842 0.09419108 -0.0949987 -0.058691617 0.12987216 -0.10296463 -0.12266387 -0.11700855
0.049948815 0.041141935 0.034135748 -0.14697196 -0.032724597 0.0535593 -0.14755613 -0.01347907
-0.10531973 -0.10925609 0.07714852 -0.06574285 -0.10128532 0.11012645 -0.009485292 -0.136255
-0.0053643193 0.066798076 0.096673496 -0.08587654 0.028274344 0.08818944 0.13626982 -0.006672533
-0.028425166 -0.089747906 0.058963228 0.11312815 -0.08484205 0.06202041 -0.11004289 -0.0735645
0.08453592 0.09509121 -0.014124798 -0.14160053 -0.13877265 -0.16406377 -0.054961678 -0.11992747
0.015948102 0.019160438 0.004283395 -0.013478835 -0.07615089 0.06598423 -0.024799256 -0.102061376
-0.018435853 -0.067586794 -0.103154354 -0.013578039 0.08103464 -0.07501822 0.051228702 -0.051455528
0.029115422 0.0061796485 0.08234576 0.041368604 0.11094587 0.10057844 0.038118504 -0.0116310315
0.16795804 0.025633775 0.04624027 0.14411236 0.08318422 0.0578464 0.029485565 0.06808573
0.009387679 0.10467846 -0.13903067 0.021812247 0.011684369 0.10753507 -0.07357876 -0.050119128
-0.0102029685 0.03213351 0.0056971326 0.044678446 -0.08325012 0.021326626 -0.026015546 0.13088298
0.018386384 0.020065764 -0.01100106 0.07562575 -0.01572886 -0.0766733 0.17453572 0.1839211
0.030544419 -0.0024087166 -0.029325757 0.059277985 -0.026750347 0.10355678 -0.050043136 -0.029478636
0.05451301 -0.111847356 -0.074367076 -0.17761126 -0.011243935 0.02794799 -0.13856205 -0.08590853
-0.006558064 0.1434992 0.004357619 0.008419673 0.072363675 -0.16948813 -0.09656508 0.035255693
-0.059148464 -0.12884746 -0.040948085 -0.056375463 -0.116972744 0.043194 -0.016930856 0.030613907
-0.031471565 0.0294961 0.057655882 -0.15989785 0.008384891 0.029582353 0.08415209 0.07135854
-0.07987599 -0.09010194 0.09900903 0.050395455 -0.111319095 -0.06077924 -0.030934542 0.034103364
-0.057291385 -0.05896475 0.079964705 -0.14253712 0.060096353 -0.11676932 0.015716273 0.033756565
0.04215051 0.11114928 0.09501382 -0.08295705 -0.12456762 0.08883289 -0.013303201 0.013800363
-0.09933459 -0.052949123 -0.025138324 -0.058835577 -0.10198785 -0.02921233 0.075649396 0.009613319
-0.15429653 -0.1287128 -0.098657064 -0.082409136 0.025426138 0.014551376 0.112038516 0.070511036
0.121605515 0.01829068 0.1765248 0.10785452 -0.058545098 0.15137552 0.03368887 -0.10471565
0.08415416 -0.061978113 -0.017775007 -0.015888993 -0.116857626 -0.01717064 -0.007149907 0.043922905
0.028376663 0.003104833 -0.07319361 -0.06281935 0.05548698 -0.036047786 0.049312625 -0.104126595
00000000: 1372 7abd 1b65 2a3c ed33 b5bd 4ef9 b13c
00000010: 569b 33bc 11e1 a63d 6f9f a13d e820 1cbd
00000020: 132f 083e e8ec 923d e00a d83d e1ef 23bd
00000030: e041 14bd 6e17 53bd 7ab1 253c faf7 7ebd
00000040: 0438 563b e538 f53d 6d92 583d 3808 58bd
00000050: 29e8 88bc af36 913c 5568 34be 1b54 f9bd
00000060: 811f d1bd 9732 f9bc 2a0c c7bc 771d 1dbd
00000070: a308 edbb 79e9 7ebd 7314 ecbd 8bd2 02be
00000080: d09a 20be 5874 cb3d 29c3 0cbc 2f6a b0bd
00000090: 9a88 14bd de20 823d bf48 023e f501 a1bc
000000a0: 4705 573d 72e7 053e 5014 4bbd ba62 78bc
000000b0: 4ac2 89bd 67d5 b13d c933 60bd 08b3 b4bd
000000c0: 4b67 c5bd 41e7 c03d ae8e c2bd 9f66 70bd
000000d0: 35fd 043e 1fdf d2bd 3237 fbbd 2ea2 efbd
000000e0: 2197 4c3d 7284 283d edd1 0b3d d17f 16be
000000f0: 3a0a 06bd ff60 5b3d f418 17be 51d7 5cbc
00000100: dfb1 d7bd a8c1 dfbd 0b00 9e3d 30a4 86bd
00000110: ae6e cfbd fa89 e13d 3368 1bbc 6e86 0bbe
00000120: 2cc7 afbb 6ecd 883d c1fc c53d 0ae0 afbd
00000130: 999f e73c aa9c b43d 518a 0b3e 44a5 dabb
00000140: e5db e8bc c0cd b7bd 6d83 713d bbaf e73d
00000150: abc1 adbd 1d09 7e3d 2b5e e1bd fca8 96bd
00000160: 2b21 ad3d 2ebf c23d b26b 67bc bbff 10be
00000170: 6b1a 0ebe 5500 28be 7f1f 61bd 899c f5bd
00000180: 98a5 823c 5af6 9c3c b95b 8c3b 55d6 5cbc
00000190: fff4 9bbd bd22 873d cf27 cbbc 8e05 d1bd
000001a0: c906 97bc f26a 8abd 9742 d3bd 6c76 5ebc
000001b0: 7df5 a53d 27a3 99bd 30d5 513d 08c3 52bd
000001c0: 7783 ee3c a67e ca3b e5a4 a83d 2072 293d
000001d0: 9737 e33d 12fc cd3d 2622 1c3d 1590 3ebc
000001e0: 31fd 2b3e ecfd d13c 7066 3d3d 3192 133e
000001f0: 7d5c aa3d 59f0 6c3d b68b f13c 8870 8b3d
00000200: c8ce 193c a961 d63d 0e5e 0ebe 99af b23c
00000210: cc6f 3f3c 593b dc3d 76b0 96bd b749 4dbd
00000220: 5a2a 27bc 6d9e 033d 03af ba3b bf00 373d
00000230: 0a7f aabd 2db5 ae3c 8e1e d5bc 3006 063e
00000240: 0b9f 963c f560 a43c ca3d 34bc ace1 9a3d
00000250: cfd9 80bc e406 9dbd 7eb9 323e d055 3c3e
00000260: 4a38 fa3c 8fdb 1dbb 923c f0bc 79cd 723d
00000270: 8b23 dbbc 9415 d43d 08fa 4cbd 2e7d f1bc
00000280: 0949 5f3d 3a10 e5bd c44d 98bd badf 35be
00000290: 7b38 38bc 2ff3 e43c 36e3 0dbe d0f0 afbd
000002a0: 07e5 d6bb 74f1 123e 5cca 8e3b abf2 093c
000002b0: 6833 943d 4c8e 2dbe eac3 c5bd 4668 103d
000002c0: a945 72bd 97f0 03be 2eb9 27bd f5e9 66bd
000002d0: 688f efbd 31ec 303d 94b2 8abc 04ca fa3c
000002e0: 54e8 00bd cea1 f13c 9328 6c3d 43bc 23be
000002f0: c860 093c b156 f23c ee57 ac3d 6d24 923d
00000300: 0696 a3bd 5e87 b8bd 3fc5 ca3d 776b 4e3d
00000310: 44fb e3bd a7f3 78bd 706a fdbc f8af 0b3d
00000320: 5faa 6abd 0685 71bd 89c4 a33d 40f5 11be
00000330: 9827 763d c124 efbd 6abf 803c 5344 0a3d
00000340: 03a6 2c3d 3ca2 e33d 9b96 c23d 63e5 a9bd
00000350: 4f1d ffbd 05ee b53d abf5 59bc eb1a 623c
00000360: ef6f cbbd 2ee1 58bd e3ee cdbc 93fd 70bd
00000370: 02df d0bd b24e efbc 12ee 9a3d 2f81 1d3c
00000380: e9ff 1dbe 4acd 03be b70c cabd 1fc6 a8bd
00000390: 7a4a d03c e568 6e3c 7374 e53d 1768 903d
000003a0: 500c f93d 56d6 953c ebc2 343e d5e2 dc3d
000003b0: fccc 6fbd 2f02 1b3e 57fd 093d 2975 d6bd
000003c0: 0459 ac3d c3dc 7dbd e49c 91bc a229 82bc
000003d0: 0d53 efbd 71a9 8cbc c449 eabb 81e8 333d
000003e0: 2d76 e83c 747a 4b3b 88e6 95bd 6ea7 80bd
000003f0: 5146 633d d8a6 13bd 09fc 493d 5340 d5bd

lstm.weight_hh_l0 f4 [256, 64]
-0.08614687 -0.09321152 0.05328999 -0.11370755 0.09891982 0.061335836 -0.13526487 0.08166917
-0.052754894 0.0665827 -0.009528255 0.17066139 -0.050741848 -0.09014881 0.12587185 -0.013400474
0.1304237 -0.0848173 -0.08465819 0.086063914 -0.1012724 -0.07515874 0.009145857 0.09297525
-0.088832475 0.0979388 0.024557725 0.074210905 -0.001080385 0.0020948318 -0.014056727 -0.10631838
-0.092265464 0.09434909 -0.057858814 0.08314129 0.015538254 -0.0706055 0.10714601 -0.09032842
0.07222104 -0.1200901 -0.16965051 0.04749934 -0.085273154 -0.022424132 -0.14844188 0.017155385
0.017593082 0.04242771 0.023097875 -0.019960355 0.06235292 0.020863075 0.13880202 0.11830128
0.0064555635 0.029982913 0.02155717 0.04407686 0.14303309 0.107282415 0.09167052 0.016706351
0.07093981 0.051372174 0.0764166 0.01411047 0.07940781 0.11360571 -0.10284442 0.07017579
-0.104604036 -0.11390276 0.0015667105 0.1716534 0.04604458 -0.08176113 0.022086084 -0.0047308747
0.027872013 -0.021708583 0.030539006 0.094637424 -0.052781418 -0.08128907 0.16976361 0.08342708
-0.08493848 -0.046072613 -0.029647542 -0.07442104 0.07442027 0.06374607 -0.004751831 0.080062374
-0.044186205 0.024914399 -0.043305576 0.071228616 0.049499135 -0.16932544 -0.14226092 -0.09757771
-0.17316347 -0.09306969 -0.0778531 0.14158776 -0.064252175 -0.005190193 0.032627333 0.16948539
-0.14548425 -0.12945864 0.024980176 0.05971103 0.04981661 0.17875166 -0.017969333 0.12766139
-0.04392865 0.088873 -0.11374313 0.0016004969 0.052724052 0.107214406 0.10927069 0.18417326
0.118129164 -0.071121365 0.09507973 -0.027576778 0.0014099248 0.043669537 -0.02692464 0.027813006
0.076331586 -0.060155515 0.040092275 0.01364896 0.11472935 -0.011515192 0.042552073 -0.024457637
0.08871048 -0.0136274025 0.062245764 0.12683728 -0.03544236 0.10334155 0.007874859 0.04353971
-0.14747776 -0.012563114 -0.073375784 -0.040866736 -0.06616038 0.06582141 0.006823309 -0.06751774
-0.055324152 -0.07284501 0.08101609 0.022700934 0.11772876 0.059566602 0.0148746595 0.059891522
0.033466257 -0.0380366 -0.08005037 0.039339833 0.011252548 -0.005534719 0.017488234 0.10701219
0.020253733 0.1145153 -0.03675561 -0.09930593 -0.09407856 0.10570307 0.045990806 -0.07601424
-0.012216038 0.067155905 0.053392794 0.0116114095 0.102440216 -0.0825705 0.07457149 0.0666721
0.002417546 0.041911792 0.031736407 0.14230543 0.061063606 0.080543675 -0.027749216 -0.11923366
0.01911759 -0.046819758 -0.0065100626 0.11550518 -0.012371363 -0.020511083 -0.11873853 0.11149754
0.046067964 0.09383933 0.058961775 -0.030489584 0.0054820357 -0.10933222 -0.02049193 0.06631213
0.045136716 -0.01764833 -0.06923988 0.045561086 0.005870055 0.06251044 -0.09187125 -0.007495724
0.06054624 0.014054018 0.08748712 0.057621807 0.13609917 0.10489128 0.025812797 -0.03915907
-0.07995752 -0.043727707 -0.009283188 -0.023280583 -0.014021031 0.045739498 0.079641685 0.002793123
0.08380496 0.08826021 -0.11167192 -0.015684083 0.04133823 -0.06403996 -0.056197185 -0.06593221
0.021035733 0.07067289 0.054004617 0.0964128 -0.084936105 -0.07956491 -0.017652854 0.052247655
00000000: c56d b0bd aee5 bebd 9b46 5a3d 81df e8bd
00000010: 7996 ca3d 493b 7b3d e082 0abe 2a42 a73d
00000020: 8415 58bd 835c 883d 661c 1cbc dcc1 2e3e
00000030: afd6 4fbd f09f b8bd 8de4 003e a98d 5bbc
00000040: ca8d 053e b1b4 adbd 4661 adbd 4742 b03d
00000050: e767 cfbd d3ec 99bd 81d8 153c cf69 be3d
00000060: cded b5bd 2394 c83d 482d c93c e3fb 973d
00000070: b49b 8dba 7249 093b 304e 66bc 73bd d9bd
00000080: adf5 bcbd 183a c13d 5dfd 6cbd fb45 aa3d
00000090: 2994 7e3c 9e99 90bd 5e6f db3d 1bfe b8bd
000000a0: a0e8 933d ccf1 f5bd ddb8 2dbe ab8e 423d
000000b0: b1a3 aebd d0b2 b7bc 2601 18be 7389 8c3c
000000c0: 5e1f 903c aec8 2d3d c137 bd3c e683 a3bc
000000d0: c765 7f3d 0ae9 aa3c 1e22 0e3e f147 f23d
000000e0: 3189 d33b ba9e f53c aa98 b03c f089 343d
000000f0: 4477 123e e2b6 db3d c1bd bb3d c2db 883c
00000100: e448 913d a16b 523d 4e80 9c3d 9a2f 673c
00000110: 90a0 a23d 1caa e83d 18a0 d2bd 53b8 8f3d
00000120: a43a d6bd da45 e9bd 155a cd3a e9c5 2f3e
00000130: 3e99 3c3d 6172 a7bd e0ed b43c 7405 9bbb
00000140: d953 e43c 33d6 b1bc f02c fa3c 44d1 c13d
00000150: 5431 58bd e27a a6bd 83d6 2d3e d1db aa3d
00000160: 3af4 adbd a3b6 3cbd 67df f2bc 0f6a 98bd
00000170: a869 983d 4d8d 823d 3fb5 9bbb bef7 a33d
00000180: 98fc 34bd 4819 cc3c 3061 31bd 4fe0 913d
00000190: 9bbf 4a3d a663 2dbe d9ac 11be d3d6 c7bd
000001a0: c451 31be 529b bebd 7271 9fbd 62fc 103e
000001b0: a596 83bd 7f12 aabb 3da4 053d 948d 2d3e
000001c0: d3f9 14be ce90 04be 3aa3 cc3c 8e93 743d
000001d0: 800c 4c3d ad0a 373e 6c34 93bc abb9 023e
000001e0: 87ee 33bd 0c03 b63d 28f2 e8bd c4c7 d13a
000001f0: 2df5 573d 3a93 db3d 50c9 df3d ea97 3c3e
00000200: b4ed f13d 14a8 91bd 29b9 c23d b2e8 e1bc
00000210: 3acd b83a d4de 323d 1091 dcbc 1ad8 e33c
00000220: bc53 9c3d a165 76bd cc37 243d e39f 5f3c
00000230: 39f7 ea3d 37aa 3cbc 154b 2e3d 625b c8bc
00000240: d7ad b53d 7845 5fbc 6af5 7e3d a2e1 013e
00000250: 022c 11bd bca4 d33d 8d05 013c b256 323d
00000260: 6904 17be 85d5 4dbc 0b46 96bd e163 27bd
00000270: 187f 87bd 60cd 863d 1196 df3b be46 8abd
00000280: 949b 62bd c42f 95bd c4eb a53d 4ff7 b93c
00000290: c71b f13d 1cfc 733d d8b4 733c d050 753d
000002a0: ea13 093d 44cc 1bbd 73f1 a3bd ce22 213d
000002b0: 9b5c 383c 975c b5bb 7c43 8f3c 3529 db3d
000002c0: 28eb a53c ff86 ea3d 0d8d 16bd e860 cbbd
000002d0: 43ac c0bd da7a d83d db60 3c3d 5bad 9bbd
000002e0: c725 48bc 0989 893d 67b2 5a3d c83d 3e3c
000002f0: 2dcc d13d b91a a9bd f0b8 983d 628b 883d
00000300: b16f 1e3b b3ab 2b3d 09fe 013d 84b8 113e
00000310: d51d 7a3d 15f4 a43d 5352 e3bc c730 f4bd
00000320: 7e9c 9c3c 13c6 3fbd 5d52 d5bb fb8d ec3d
00000330: 42b1 4abc dc06 a8bc 302d f3bd d258 e43d
00000340: c3b1 3c3d d62e c03d e781 713d 4bc5 f9bc
00000350: a6a2 b33b 92e9 dfbd b1de a7bc a7ce 873d
00000360: 47e1 383d 3b93 90bc a3cd 8dbd 439e 3a3d
00000370: 9759 c03b 7905 803d fe26 bcbd b19e f5bb
00000380: 56ff 773d d342 663c 722c b33d d804 6c3d
00000390: 955d 0b3e 3dd1 d63d 5c75 d33c 4365 20bd
000003a0: c5c0 a3bd d31b 33bd 8318 18bc ecb6 bebc
000003b0: 77b8 65bc 5759 3b3d 2e1b a33d d40c 373b
000003c0: efa1 ab3d c5c1 b43d 3fb4 e4bd e87b 80bc
000003d0: 4752 293d 6227 83bd 052f 66bd 7707 87bd
000003e0: 2153 ac3c f3bc 903d f233 5d3d 1374 c53d
000003f0: fbf2 adbd edf2 a2bd b89c 90bc a301 563d

lstm.bias_ih_l0 f4 [256]
-0.011246367 0.02799571 0.08342175 0.045829903 0.11340522 -0.028948473 0.06763557 0.0913486
-0.1544728 -0.0443282 0.108661234 -0.007411467 -0.014219073 -0.027777819 -0.05034497 0.060485557
0.04484998 0.025377521 0.12503801 -0.0007227765 -0.04282416 -0.09511575 -0.016640548 -0.047614686
0.0043304735 0.058880977 -0.03428602 0.079480425 -0.09572459 0.117644206 -0.094917685 -0.070255674
-0.12620668 0.156967 -0.13689005 -0.015084702 -0.09457207 0.04585821 0.049540546 0.07440644
-0.068519026 -0.032419637 0.061671466 0.0032960523 -0.016867507 0.09935534 0.08740899 -0.0027738775
0.11439574 -0.011755603 -0.040119395 0.017283976 0.08220984 -0.02071971 -0.094788544 -0.08201061
-0.022318913 -0.03775649 0.11775258 0.00269201 0.03445729 0.017286422 0.08217991 -0.08878431
0.13279793 0.14418572 0.104269005 -0.056993272 0.057156168 -0.047223173 0.08594728 -0.11995254
0.005758859 -0.0096180355 -0.018234415 -0.12208654 -0.023320135 0.030105548 0.021398447 -0.104410574
0.021155085 0.05040422 0.008284832 -0.026201524 -0.06600726 -0.06984328 -0.1166412 -0.05392225
0.074047744 0.0287048 0.00645223 0.07272292 0.02627354 -0.08308027 -0.0023973885 0.09463269
-0.11135167 0.15066324 -0.08803231 0.10470906 0.045615647 0.024767634 -0.13941738 0.09455584
-0.08948645 0.05265359 -0.082955174 -0.09965354 -0.08396607 0.115546025 0.011053389 0.094245784
0.058398563 -0.058050342 0.011111916 0.011808828 -0.044338424 -0.00034480597 0.031047152 0.11819282
-0.11454271 -0.14585906 0.12078257 -0.08421986 -0.09954817 -0.03246949 -0.11550951 0.0155100385
0.0017131785 -0.07589511 -0.0085437065 -0.018115727 -0.06333498 0.10999657 -0.0157399 0.038526464
0.023956073 -0.10365093 0.10589028 0.052542027 -0.06936424 0.050453488 0.045647405 0.03754444
0.11783473 0.12074884 -0.09472814 0.05024478 0.036625005 -0.11885425 -0.06621104 -0.08789684
-0.06898017 0.014759428 0.0354748 0.082270645 -0.109198615 0.07065571 0.01567944 -0.054561324
-0.047541697 0.025979662 0.009797994 0.108266704 -0.023023052 -0.029474396 0.11592549 -0.008152145
-0.013119948 0.036357418 0.101690866 0.090702206 0.062490907 0.0036405649 -0.09547454 -0.07193266
-0.08515567 -0.09486149 -0.04108704 0.047657542 -0.09877363 0.012124619 0.10791897 0.0113700135
-0.022915231 -0.027138356 -0.11641429 -0.03277545 0.0970102 -0.089716926 0.07050635 -0.01110812
-0.094645016 0.10823538 -0.02976669 0.054891724 -0.0030656902 0.04354283 -0.109852575 -0.027395627
0.08854585 0.0013764967 -0.054902304 0.0035066102 -0.018160021 -0.10592897 0.040209956 -0.01687841
0.06467672 0.055669736 -0.033261865 0.090828985 0.10714205 0.123305105 0.08200217 -0.105129085
0.123861045 0.03594671 -0.08692901 0.088624515 -0.03279948 -0.06952154 -0.031246394 -0.022250373
0.005364938 -0.07567847 0.10363445 -0.011625634 0.089693405 0.026606089 -0.038263798 -0.03994301
-0.0284213 -0.10882367 -0.09498379 -0.079432584 -0.08058448 0.018860381 -0.13563803 -0.042179093
0.09203175 -0.09383948 0.13310653 -0.12542376 -0.08947718 0.10500545 -0.010301706 -0.10241197
-0.041646875 -0.12173959 0.0066193007 -0.021101296 0.110185914 -0.11587334 -0.057575032 -0.0359707
00000000: af42 38bc 4257 e53c 06d9 aa3d 23b8 3b3d
00000010: ff40 e83d 5925 edbc 8584 8a3d fa14 bb3d
00000020: 1e2e 1ebe 7d91 35bd c889 de3d e4db f2bb
00000030: 1df7 68bc 4f8e e3bc 8736 4ebd b4bf 773d
00000040: 9db4 373d 85e4 cf3c f709 003e b678 3dba
00000050: 6368 2fbd 0ccc c2bd c251 88bc 9e07 43bd
00000060: a5e6 8d3b 2e2d 713d 7f6f 0cbd a2c6 a23d
00000070: 410b c4bd 72ef f03d 3464 c2bd 35e2 8fbd
00000080: 533c 01be f5bb 203e e82c 0cbe d325 77bc
00000090: 00af c1bd d2d5 3b3d 07eb 4a3d 6762 983d
000000a0: b453 8cbd 74ca 04bd 389b 7c3d 9502 583b
000000b0: ba2d 8abc d07a cb3d 7c03 b33d f1c9 35bb
000000c0: 5048 ea3d 939a 40bc 3c54 24bd 2097 8d3c
000000d0: a25d a83d 62bc a9bc 7f20 c2bd 2ef5 a7bd
000000e0: 27d6 b6bc 8da6 1abd 4428 f13d 6f6c 303b
000000f0: 1623 0d3d 419c 8d3c f14d a83d 8cd4 b5bd
00000100: 2efc 073e 6ca5 133e fd8a d53d c771 69bd
00000110: 961c 6a3d 166d 41bd 2105 b03d ada9 f5bd
00000120: d0b4 bc3b f794 1dbc 5760 95bc 8208 fabd
00000130: de09 bfbc e99f f63c cc4b af3c 36d5 d5bd
00000140: 6e4d ad3c a874 4e3d 1bbd 073c 94a4 d6bc
00000150: d02e 87bd fe09 8fbd 95e1 eebd 94dd 5cbd
00000160: 58a6 973d 5426 eb3c 3a6d d33b c1ef 943d
00000170: 9b3b d73c fd25 aabd 811d 1dbb c9ce c13d
00000180: 580c e4bd 7747 1a3e 494a b4bd b471 d63d
00000190: 79d7 3a3d 7ee5 ca3c 6ec3 0ebe 7ea6 c13d
000001a0: ac44 b7bd 4aab 573d 67e4 a9bd 2817 ccbd
000001b0: 67f6 abbd 65a3 ec3d 4619 353c ef03 c13d
000001c0: 5533 6f3d 32c6 6dbd c10e 363c d179 413c
000001d0: 359c 35bd 13c7 b4b9 9956 fe3c 140f f23d
000001e0: 5e95 eabd 145c 15be da5c f73d 767b acbd
000001f0: e9df cbbd bafe 04bd 4090 ecbd d11d 7e3c
00000200: bb8c e03a e56e 9bbd e7fa 0bbc 6f67 94bc
00000210: c5b5 81bd e245 e13d f6f0 80bc edcd 1d3d
00000220: 873f c43c f046 d4bd 01dd d83d 4f36 573d
00000230: d70e 8ebd 51a8 4e3d c6f8 3a3d 33c8 193d
00000240: 5653 f13d 2b4b f73d d400 c2bd 78cd 4d3d
00000250: 1a04 163d db69 f3bd a799 87bd 4203 b4bd
00000260: 7a45 8dbd 87d1 713c 064e 113d 837d a83d
00000270: 86a3 dfbd f1b3 903d 2b72 803c b27b 5fbd
00000280: 15bb 42bd 4dd3 d43c c487 203c efba dd3d
00000290: d79a bcbc 4a74 f1bc 586a ed3d 9390 05bc
000002a0: 0df5 56bc 84eb 143d 4d43 d03d 14c2 b93d
000002b0: 77f6 7f3d 8b96 6e3b 2888 c3bd 6e51 93bd
000002c0: 1966 aebd be46 c2bd e24a 28bd 8e34 433d
000002d0: d449 cabd 57a6 463c 9f04 dd3d 4b49 3a3c
000002e0: b9b8 bbbc 4251 debc 9e6a eebd 8d3f 06bd
000002f0: 49ad c63d 82bd b7bd a265 903d d5fe 35bc
00000300: 3fd5 c1bd 83aa dd3d 46d9 f3bc 25d6 603d
00000310: bfe9 48bb f759 323d 63fa e0bd cb6c e0bc
00000320: 8757 b53d 916b b43a 3de1 60bd 28cf 653b
00000330: 53c4 94bc 4af1 d8bd 32b3 243d 9744 8abc
00000340: 3a75 843d f305 643d 983d 08bd 8c04 ba3d
00000350: 4b6d db3d 6387 fc3d c1f0 a73d eb4d d7bd
00000360: dcaa fd3d db3c 133d d607 b2bd c580 b53d
00000370: bf58 06bd 4f61 8ebd 70f8 ffbc 6a46 b6bc
00000380: 5dcc af3b 50fd 9abd 4c3e d43d 7179 3ebc
00000390: 2db1 b73d 03f5 d93c 80ba 1cbd 489b 23bd
000003a0: c9d3 e8bc f2de debd dc86 c2bd 8dad a2bd
000003b0: 7a09 a5bd 1681 9a3c b2e4 0abe fcc3 2cbd
000003c0: 247b bc3d ea2e c0bd 144d 083e 166f 00be
000003d0: d03f b7bd 190d d73d 7dc8 28bc 5ebd d1bd
000003e0: ea95 2abd 9b52 f9bd b8e6 d83b a0dc acbc
000003f0: 27a9 e13d 004f edbd ccd3 6bbd 0356 13bd

lstm.bias_hh_l0 f4 [256]
-0.076279536 0.073701225 -0.08625652 -0.051717613 0.0271874 -0.09162716 -0.061963078 -0.051512234
-0.15083703 0.11149449 -0.026750889 0.07609313 0.10757589 0.006663857 -0.05945606 0.035977244
0.015121813 0.019772438 -0.005813571 0.021688677 -0.0064964076 0.1221862 0.014334377 -0.13913327
0.085729204 -0.13541561 -0.13497283 -0.053401522 0.13657461 -0.03627888 -0.07201464 0.08616143
-0.102759995 0.06482892 -0.07234074 0.005894706 0.021281715 0.07887272 0.09159795 -0.0073671173
-0.070553735 -0.11793815 -0.06180683 0.026518157 0.0076347273 0.012634523 0.046233643 0.15121423
0.088068284 0.13172835 0.10436568 -0.061996605 -0.10142584 -0.089782074 0.030292287 0.12693672
0.08369689 -0.15919143 -0.043985374 -0.008225857 -0.039916508 0.044393495 -0.0780688 -0.027144836
-0.09742146 0.09970229 0.11695493 -0.13766624 0.072872095 0.098449126 -0.09564059 -0.08901935
-0.035416268 -0.008563561 -0.09086624 -0.016801635 -0.1250203 0.032376774 -0.017865801 0.014047751
0.005397247 0.06288764 -0.05301932 -0.13157788 0.021456515 0.024715437 -0.041789457 -0.10061451
0.0043379213 -0.09360867 0.046197563 0.09050522 0.10899014 -0.062122032 -0.089170866 0.06949087
-0.067141905 -0.049819276 -0.042870723 0.03602661 -0.055804517 -0.07425281 0.085600354 0.010874576
-0.018260904 0.070283875 -0.031549327 -0.09290548 0.013767127 0.13078752 -0.0806573 -0.032181498
-0.12288933 -0.00302336 0.10725396 0.0037806032 0.0099607855 0.088075936 -0.1428524 -0.10224455
0.048508797 -0.16329254 0.0858308 0.013347033 0.029233746 0.05901217 -0.06483985 0.008678994
-0.02568444 0.046980493 -0.023585392 0.113681935 0.106294 0.057549566 0.082196146 0.020552909
0.04538494 -0.108169794 0.10204577 0.0047839647 -0.07526501 0.020592727 0.113639265 0.035372857
-0.09072812 -0.056452524 0.06186555 -0.06689031 -0.059361137 0.06674149 0.1280542 -0.08229503
0.002466877 0.008497873 0.069683254 0.10641279 0.00593256 0.08241991 0.08882354 0.014548693
0.09239767 -0.12610365 0.110638134 -0.06813005 -0.10716794 0.08208588 0.09533262 -0.07302757
-0.0067287553 -0.08361245 -0.068577535 0.034803495 0.06126647 0.12799428 0.12234303 0.058116026
-0.05305841 -0.0054650856 -0.016126435 -0.029325083 -0.05640076 0.020926887 -0.026137276 -0.043158904
0.048845664 -0.043201987 -0.09525818 -0.1066622 -0.024668593 0.09349801 0.0053672916 0.063211516
0.14820963 0.01076194 -0.03652537 -0.073143534 -0.060838852 0.11094145 0.03581928 -0.09592563
0.034350228 -0.09240403 -0.05468795 0.012881786 0.061766986 -0.07073988 -0.05421797 -0.13916291
0.10141612 -0.03098782 0.033476938 0.103062786 0.0993057 -0.060752083 -0.07138229 0.047377776
-0.041532937 -0.06815491 0.07331518 0.1298689 0.13556798 0.07247607 -0.097694665 -0.06139122
0.016960202 0.059179142 0.10563323 0.08055238 0.009863727 -0.07448351 0.05266256 -0.12603916
-0.12907673 0.033436697 -0.08075626 0.050651588 0.034058392 0.04057128 -0.0677771 -0.087619364
0.07825233 0.09184857 0.0061493395 0.022502992 0.0051515107 -0.08909928 -0.10241177 0.069671035
0.017489111 -0.03497715 0.0116226515 0.1086457 0.11318148 -0.09439607 -0.10119662 0.059282977
00000000: 7238 9cbd abf0 963d 42a7 b0bd d9d5 53bd
00000010: 1cb8 de3c 05a7 bbbd ffcc 7dbd 7efe 52bd
00000020: 0675 1abe 3957 e43d ae24 dbbc b7d6 9b3d
00000030: c050 dc3d 7c5c da3b 3388 73bd e05c 133d
00000040: 7bc1 773c cff9 a13c c57f bebb 74ac b13c
00000050: d1df d4bb c23c fa3d bcda 6a3c f478 0ebe
00000060: cb92 af3d 64aa 0abe 5136 0abe 8ebb 5abd
00000070: 37da 0b3e 2a99 14bd 697c 93bd 6775 b03d
00000080: d573 d2bd 06c5 843d 6227 94bd 6128 c13b
00000090: fe56 ae3c 0588 a13d b597 bb3d dc67 f1bb
000000a0: 7a7e 90bd 8f89 f1bd 2929 7dbd 9b3c d93c
000000b0: bc2c fa3b 0801 4f3c 7d5f 3d3d e7d7 1a3e
000000c0: 255d b43d cce3 063e acbd d53d 27f0 7dbd
000000d0: 5ab8 cfbd aadf b7bd 8827 f83c b3fb 013e
000000e0: 4669 ab3d 1403 23be 022a 34bd bfc5 06bc
000000f0: 7e7f 23bd f4d5 353d 89e2 9fbd d95e debc
00000100: e784 c7bd b730 cc3d 1186 ef3d 61f8 0cbe
00000110: f73d 953d b29f c93d 37df c3bd c74f b6bd
00000120: a610 11bd 2e4e 0cbc 1418 babd 95a3 89bc
00000130: 5205 00be 829d 043d 4d5b 92bc 8a28 663c
00000140: 64db b03b 3ccb 803d c92a 59bd 5abc 06be
00000150: 93c5 af3c 0778 ca3c 6c2b 2bbd fb0e cebd
00000160: 1f25 8e3b e7b5 bfbd a839 3d3d cd5a b93d
00000170: 3936 df3d ac73 7ebd 379f b6bd 3b51 8e3d
00000180: b281 89bd 4c0f 4cbd 3699 2fbd a390 133d
00000190: 4793 64bd db11 98bd 3d4f af3d 472b 323c
000001a0: e497 95bc fef0 8f3d de39 01bd 3a45 bebd
000001b0: 848f 613c 2aed 053e a82f a5bd bfd0 03bd
000001c0: 67ad fbbd 9023 46bb f7a7 db3d ffc3 773b
000001d0: 9032 233c 2861 b43d e647 12be 9765 d1bd
000001e0: 29b1 463d 2936 27be 0fc8 af3d 84ad 5a3c
000001f0: 9c7b ef3c bfb6 713d c1ca 84bd 5732 0e3c
00000200: 2d68 d2bc 9e6e 403d 2736 c1bc 13d2 e83d
00000210: abb0 d93d 18b9 6b3d 7456 a83d 935e a83c
00000220: 8fe5 393d 2088 ddbd 5ffd d03d cec2 9c3b
00000230: 8b24 9abd 14b2 a83c b4bb e83d 21e3 103d
00000240: aacf b9bd c33a 67bd bb66 7d3d c9fd 88bd
00000250: aa24 73bd c3af 883d a420 033e 4c8a a8bd
00000260: 54ab 213b aa3a 0b3c 18b6 8e3d f3ee d93d
00000270: ec65 c23b c5cb a83d 1ee9 b53d a45d 6e3c
00000280: fd3a bd3d 5121 01be 3f96 e23d c587 8bbd
00000290: dd7a dbbd a41c a83d c03d c33d 7b8f 95bd
000002a0: e47c dcbb 013d abbd 6172 8cbd 1c8e 0e3d
000002b0: 8df2 7a3d ef10 033e fc8e fa3d 120b 6e3d
000002c0: c653 59bd 7614 b3bb 961b 84bc 283b f0bc
000002d0: 7c04 67bd dd6e ab3c d71d d6bc 64c7 30bd
000002e0: 6412 483d 91f4 30bd b816 c3bd b671 dabd
000002f0: ca15 cabc e27b bf3d 1be0 af3b 0a75 813d
00000300: 44c4 173e d952 303c a09b 15bd 47cc 95bd
00000310: 2932 79bd 4535 e33d 3db7 123d a874 c4bd
00000320: d3b2 0c3d 533e bdbd 7900 60bd 200e 533c
00000330: 61ff 7c3d 12e0 90bd aa13 5ebd b980 0ebe
00000340: 41b3 cf3d 2bda fdbc 1d1f 093d 9512 d33d
00000350: c960 cb3d 2dd7 78bd e130 92bd 330f 423d
00000360: 711e 2abd cd94 8bbd 4526 963d 5afc 043e
00000370: 55d2 0a3e 556e 943d 2414 c8bd 5c75 7bbd
00000380: 1ff0 8a3c d465 723d 3c56 d83d a5f8 a43d
00000390: 789b 213c cf8a 98bd b2b4 573d 6910 01be
000003a0: b12c 04be ebf4 083d 8a63 a5bd 0a78 4f3d
000003b0: d080 0b3d 122e 263d b8ce 8abd c871 b3bd
000003c0: c242 a03d 1a1b bc3d 6680 c93b 3258 b83c
000003d0: 01ce a83b af79 b6bd 43bd d1bd b0af 8e3d
000003e0: 5345 8f3c 3344 0fbd ef6c 3e3c a381 de3d
000003f0: b1cb e73d ba52 c1bd 2c40 cfbd b5d2 723d

lstm.weight_ih_l1 f4 [256, 64]
-0.06718356 -0.16017362 -0.039823465 -0.018522495 0.061114397 0.005682876 -0.039219856 0.017601838
-0.08645488 -0.0054309964 0.12396351 -0.071135975 0.07237295 0.0005481654 -0.06505613 0.03461658
0.038481604 0.066957496 0.00060685456 -0.09654699 -0.044522524 0.061617635 0.11857563 -0.04453303
-0.056994207 0.074682966 0.005800082 -0.047306206 0.028555073 -0.06435308 -0.04560573 0.085720114
0.08550378 0.0919729 0.010597082 0.10224471 0.07349414 -0.041770995 -0.0062904702 -0.0067640194
0.09798442 -0.020559896 0.018317167 -0.042171076 0.049991895 0.08614211 -0.0016964971 0.006088792
-0.032383855 -0.15702592 -0.10226212 -0.06260991 0.03355769 -0.016936634 -0.13350132 -0.14742067
-0.056957494 -0.11282921 0.09983728 -0.0398477 -0.037700284 0.12624276 -0.0037712194 -0.009131103
0.07019515 -0.041822493 -0.13066514 -0.063103795 -0.047746073 0.11056357 0.09536032 -0.011272406
0.09162971 -0.05794132 0.11539156 -0.059531327 0.08695527 -0.030706218 0.013050801 0.101984315
0.08490554 -0.08171358 -0.015490236 -0.019329874 0.084147535 -0.078774236 -0.051755514 0.048221763
-0.0067802505 0.13386756 -0.074832216 -0.09937763 -0.016884485 0.10388946 -0.021178305 0.10952003
-0.020926489 -0.01724089 0.06374368 0.024702974 0.0109247 -0.039769772 0.11932431 0.0071161115
-0.13157347 0.122598976 0.02533867 -0.08389691 -0.03051551 0.021795485 -0.059652787 0.07314353
-0.07629077 -0.12866059 -0.032279927 0.08138783 0.13194953 0.13704467 -0.100291416 0.07949633
-0.086971626 -0.0914821 -0.08288405 0.010537311 -0.03479915 0.07815812 -0.06431198 -0.041999627
0.059164643 -0.07390728 0.09308056 0.09182061 -0.018355746 0.092891105 -0.10087657 -0.069359556
-0.104587816 -0.09162861 0.0014625808 -0.09898239 -0.0452913 0.08176008 0.0066789626 0.036702834
-0.0987176 -0.07519691 0.091774434 -0.052831598 -0.1161338 -0.06901379 -0.033415195 0.103381105
0.060978323 -0.08764212 0.11860869 0.036131263 -0.08395602 0.093497045 0.038185652 0.096578844
0.07569785 -0.0061705024 0.104546025 -0.03293508 0.11187316 0.12502076 -0.028400872 -0.09979567
-0.08912729 -0.09439265 -0.054770373 -0.06348696 -0.03786516 -0.006541832 0.058324657 -0.010233028
0.08298748 0.0062192613 0.070957944 -0.08409856 0.01829709 0.16088109 -0.117606096 -0.04143715
0.03106348 0.022208149 0.049807377 -0.10050413 0.01663819 -0.03289559 -0.021536583 -0.02877501
-0.0052434853 -0.033492815 0.14498584 0.06406608 -0.10579119 0.110558614 -0.09369232 -0.09824444
-0.10091029 0.019086791 -0.09931838 0.050129633 -0.0592988 0.0743851 -0.073267065 0.0908317
-0.044017024 -0.0095947655 0.099654645 0.040744953 -0.030280776 0.09831543 0.08203922 0.00528302
0.12212425 0.03910999 0.08704017 0.080460325 -0.03652344 -0.047230456 0.05646687 -0.098503806
-0.09126689 -0.05166713 -0.046710696 0.0063710664 0.046958257 0.12360021 -0.036922883 -0.03677957
-0.075017035 0.058169413 -0.024320917 0.12467814 0.0960777 0.08912729 -0.12211024 -0.019797849
-0.011642481 0.10775781 -0.015168535 0.10657789 -0.15596198 -0.13651083 0.04571424 0.1211626
-0.08600855 -0.018665204 -0.109823264 0.045423727 -0.064977236 0.050047055 -0.029501718 0.07282205
00000000: 8997 89bd 8e04 24be ee1d 23bd 7dbc 97bc
00000010: 1753 7a3d 6b37 ba3b 00a5 20bd bb31 903c
00000020: 420f b1bd 80f6 b1bb 95e0 fd3d bdaf 91bd
00000030: 4538 943d c2b2 0f3a 263c 85bd 1dca 0d3d
00000040: e39e 1d3d 0321 893d 5215 1f3a 6eba c5bd
00000050: 405d 36bd c662 7c3d c8d7 f23d 4468 36bd
00000060: c272 69bd 62f3 983d 9d0e be3b 27c4 41bd
00000070: 54ec e93c 8ccb 83bd 13cd 3abd 078e af3d
00000080: 9b1c af3d 4a5c bc3d 629f 2d3c ad65 d13d
00000090: 1884 963d 1018 2bbd 4a20 cebb b5a4 ddbb
000000a0: 0eac c83d 3a6d a8bc e20d 963c 94bb 2cbd
000000b0: 4dc4 4c3d 466b b03d ff5c deba 7d84 c73b
000000c0: efa4 04bd 67cb 20be cd6e d1bd a039 80bd
000000d0: ca73 093d b2be 8abc 92b4 08be 72f5 16be
000000e0: 434c 69bd 0013 e7bd 7d77 cc3d 5837 23bd
000000f0: 9d6b 1abd c845 013e 9026 77bb 9f9a 15bc
00000100: 7ac2 8f3d 104e 2bbd 15cd 05be 903c 81bd
00000110: 6391 43bd 276f e23d 454c c33d e6af 38bc
00000120: 5ba8 bb3d e153 6dbd 6952 ec3d 1fd7 73bd
00000130: 9b15 b23d 9b8b fbbc 07d3 553c 27dd d03d
00000140: f5e2 ad3d 7359 a7bd c2ca 7dbc af59 9ebc
00000150: 8b55 ac3d 6354 a1bd 97fd 53bd 2f84 453d
00000160: dd2c debb 9414 093e a241 99bd 8086 cbbd
00000170: 5551 8abc ffc3 d43d 207e adbc 0a4c e03d
00000180: 076e abbc c43c 8dbc 0c8c 823d e45d ca3c
00000190: 83fd 323c a1e5 22bd 4e60 f43d 452e e93b
000001a0: 32bb 06be 2c15 fb3d 0b93 cf3c 25d2 abbd
000001b0: aafb f9bc 728c b23c 7b56 74bd 46cc 953d
000001c0: 563e 9cbd 9abf 03be f537 04bd aaae a63d
000001d0: c71d 073e 7055 0c3e 9665 cdbd f9ce a23d
000001e0: 2e1e b2bd f85a bbbd 1dbf a9bd b0a4 2c3c
000001f0: 8e89 0ebd 5d11 a03d 00b6 83bd cd07 2cbd
00000200: a056 723d b35c 97bd 05a1 be3d 720c bc3d
00000210: ca5e 96bc b13d be3d 6098 cebd 620c 8ebd
00000220: 2332 d6bd c8a7 bbbd 11b4 bf3a 47b7 cabd
00000230: 5f83 39bd d471 a73d 33db da3b b655 163d
00000240: 742c cabd d600 9abd 3cf4 bb3d f265 58bd
00000250: 8fd7 edbd 1a57 8dbd 5fde 08bd 79b9 d33d
00000260: 68c4 793d b67d b3bd 1de9 f23d 60fe 133d
00000270: 22f1 abbd 617b bf3d 8f68 1c3d 21cb c53d
00000280: 7907 9b3d ed31 cabb 3a1c d63d efe6 06bd
00000290: c11d e53d 7105 003e f2a8 e8bc ac61 ccbd
000002a0: 5e88 b6bd ef50 c1bd e656 60bd 7405 82bd
000002b0: 7f18 1bbd dd5c d6bb d6e5 6e3d 6ea8 27bc
000002c0: 57f5 a93d f2ca cb3b 6652 913d de3b acbd
000002d0: c7e3 953c 03be 243e 77db f0bd 00ba 29bd
000002e0: d778 fe3c dded b53c d202 4c3d 1cd5 cdbd
000002f0: d04c 883c 87bd 06bd 7d6d b0bc 92b9 ebbc
00000300: 8bd1 abbb c32f 09bd 2b77 143e 1435 833d
00000310: 0da9 d8bd 8e6c e23d c2e1 bfbd 6234 c9bd
00000320: 0eaa cebd e75b 9c3c 6f67 cbbd bb54 4d3d
00000330: 4ce3 72bd 3757 983d 0b0d 96bd f805 ba3d
00000340: 324b 34bd 5d33 1dbc bc17 cc3d 2ee4 263d
00000350: 640f f8bc 9a59 c93d 2e04 a83d 2f1d ad3b
00000360: 471c fa3d cc31 203d 1e42 b23d 62c8 a43d
00000370: 9a99 15bd b974 41bd ce49 673d 5dbc c9bd
00000380: 23ea babd eaa0 53bd b753 3fbd 61c4 d03b
00000390: 4d57 403d 1b22 fd3d 733c 17bd 2da6 16bd
000003a0: 88a2 99bd 0d43 6e3d a93c c7bc 4157 ff3d
000003b0: 63c4 c43d 5e88 b63d ef14 fabd 192f a2bc
000003c0: 1bc0 3ebc 20b0 dc3d 7285 78bc 8245 da3d
000003d0: 7fb4 1fbe 7fc9 0bbe db3e 3b3d 1924 f83d
000003e0: 4025 b0bd c5e7 98bc 05eb e0bd 3b0e 3a3d
000003f0: c912 85bd 24fe 4c3d 96ad f1bc ba23 953d

lstm.weight_hh_l1 f4 [256, 64]
-0.10442334 0.09011197 -0.03417913 -0.023092888 0.005610337 0.07586016 -0.021371221 -0.020526774
0.12279138 -0.11873462 0.09635998 -0.06741937 0.081506 -0.029134749 0.0132819135 -0.0011045174
0.018643916 -0.05501498 0.036571283 -0.041531056 -0.12958041 0.10736492 0.013648448 0.050747726
0.05449601 -0.10517533 -0.03167508 -0.033896826 -0.119955346 -0.059091076 -0.02881723 0.11832947
0.06931277 -0.05862064 -0.13981964 0.13449824 -0.07857987 0.041664485 0.08045008 0.089819856
0.08610422 0.008872627 -0.010260268 -0.015768472 -0.02445085 -0.0006682129 -0.008482679 -0.027409952
-0.0869347 -0.018266276 -0.030689746 0.104325496 0.11142395 -0.082269445 0.04640318 0.039925337
0.06135459 0.058134563 -0.11746011 0.047370095 0.1407322 0.019373005 0.03947432 -0.069727264
0.11172863 0.043538623 0.0057658614 -0.11044227 0.07715933 0.09559601 0.07437122 0.008234477
0.081300795 0.04651382 0.010043567 -0.057516184 0.10638033 -0.12519082 -0.041819643 -0.069412254
-0.025229745 0.08631596 -0.025287854 -0.1362572 0.06743337 -0.034540724 -0.07920998 0.101260625
-0.07033923 -0.085657984 0.107053384 -0.092619695 -0.04181565 -0.05707141 -0.10346373 -0.10138962
-0.014663316 -0.07901993 0.05039163 0.011466965 -0.11331427 0.16085543 0.0022458297 0.098492965
0.07502293 -0.14295332 -0.14320046 0.044375155 -0.01186071 -0.08411851 -0.09304786 -0.06256051
0.04406104 -0.008569366 -0.06460094 0.094127186 -0.093282096 0.12583655 0.020727132 0.07155703
-0.09918382 -0.10749179 0.035693508 -0.004880523 0.0051232874 -0.038996495 0.10588628 0.08399243
0.08517746 0.103648506 -0.13992666 -0.027465487 0.022139458 0.03922055 0.04100977 -0.0320923
-0.047996514 -0.10207938 -0.053213514 -0.032670032 -0.041018236 -0.06348453 0.121813506 0.11025404
-0.098168895 -0.04202683 0.030093363 -0.041175883 -0.008697203 -0.01584107 0.09769714 -0.12300189
-0.097733214 0.027833207 0.100284696 -0.032957755 -0.060278997 -0.11766954 0.10001921 0.09993047
-0.023293171 -0.024117213 0.04465721 -0.048187297 0.06775994 0.1326576 0.06481414 -0.005501196
0.079354875 0.115190566 0.10438991 -0.0917607 0.07754788 -0.037741292 0.03119135 -0.0014486499
-0.07037199 -0.027629515 0.12681046 -0.0063899606 0.0023242575 0.082886726 0.016223578 -0.07051436
-0.018592728 -0.088533245 -0.12754105 -0.038871154 -0.008988317 -0.100577585 -0.078819536 0.012255827
-0.01784749 0.14221914 -0.10161793 0.11951949 -0.12943414 -0.100918554 0.031525623 -0.038365968
-0.075950384 0.1434548 0.050011687 0.051438455 0.073199585 -0.013488243 -0.041246988 0.1080357
-0.039501917 -0.033900328 -0.044528455 -0.014572567 0.0554648 -0.06241004 0.09037495 -0.08956545
0.046288818 0.018661415 0.039336774 -0.058674887 -0.11672896 -0.048118223 -0.0030158786 -0.047924973
-0.030806549 -0.010918967 0.07816813 -0.11781683 -0.017494228 -0.046513997 -0.047630217 0.053204
-0.01380495 0.13140267 0.1471499 -0.12938255 0.04513082 0.12338914 -0.061247353 0.099382244
-0.12762983 -0.05234765 -0.037140597 0.010875334 0.046324637 0.14164007 0.092947766 0.07715785
0.069704644 -0.010901272 0.028336667 0.06297365 -0.0032297794 -0.10940347 -0.10683809 0.034621876
00000000: e7db d5bd a08c b83d 6aff 0bbd 4c2d bdbc
00000010: ebd6 b73b 925c 9b3d b312 afbc c427 a8bc
00000020: 0c7a fb3d 232b f3bd 6258 c53d 2b13 8abd
00000030: 9eec a63d ffab eebc 629c 593c 74c5 90ba
00000040: 20bb 983c 6357 61bd c5cb 153d 781c 2abd
00000050: bab0 04be 24e2 db3d bd9d 5f3c d9dc 4f3d
00000060: 3537 5f3d 2a66 d7bd bbbd 01bd 66d7 0abd
00000070: 26ab f5bd 7c09 72bd 1d12 ecbc b956 f23d
00000080: dbf3 8d3d 321c 70bd e12c 0fbe e8b9 093e
00000090: 7cee a0bd 61a8 2a3d 03c3 a43d 79f3 b73d
000000a0: 6957 b03d 7f5e 113c af1a 28bc e22c 81bc
000000b0: 264d c8bc 022b 2fba effa 0abc d68a e0bc
000000c0: d20a b2bd 28a3 95bc 1069 fbbc 9ba8 d53d
000000d0: 3d32 e43d e27c a8bd 4311 3e3d c088 233d
000000e0: f34e 7b3d 821e 6e3d ed8e f0bd 2507 423d
000000f0: 1a1c 103e 23b4 9e3c d3af 213d 2bcd 8ebd
00000100: fbd1 e43d 8e55 323d 8def bc3b 8f2f e2bd
00000110: b605 9e3d d7c7 c33d f04f 983d e6e9 063c
00000120: 0881 a63d 4685 3e3d c68d 243c 1796 6bbd
00000130: eedd d93d 0632 00be 134b 2bbd 0328 8ebd
00000140: 9cae cebc 6cc6 b03d 7928 cfbc 0287 0bbe
00000150: 821a 8a3d 937a 0dbd d838 a2bd bb61 cf3d
00000160: 040e 90bd 746d afbd ce3e db3d 65af bdbd
00000170: e346 2bbd b6c3 69bd cbe4 d3bd 5ca5 cfbd
00000180: 683e 70bc 33d5 a1bd 7467 4e3d f0df 3b3c
00000190: 5011 e8bd 49b7 243e c52e 133b aeb6 c93d
000001a0: 9fa5 993d 5b62 12be 24a3 12be b9c2 353d
000001b0: 6c53 42bc 5346 acbd e08f bebd ba1f 80bd
000001c0: 5979 343d 8766 0cbc 7f4d 84bd c1c5 c03d
000001d0: af0a bfbd 4cdb 003e f2cb a93c 7e8c 923d
000001e0: e320 cbbd a824 dcbd 5b33 123d cbec 9fbb
000001f0: 40e1 a73b caba 1fbd e8da d83d 3904 ac3d
00000200: 8571 ae3d ab45 d43d ef48 0fbe 4dff e0bc
00000210: cf5d b53c baa5 203d dcf9 273d 3773 03bd
00000220: fe97 44bd fe0e d1bd 6af6 59bd 03d1 05bd
00000230: bd02 28bd 2d04 82bd 5c79 f93d dfcc e13d
00000240: c60c c9bd 5324 2cbd 5b86 f63c 0ba8 28bd
00000250: b77e 0ebc 22c5 81bc 7015 c83d 6ae8 fbbd
00000260: 5a28 c8bd 7702 e43c 1062 cd3d b6fe 06bd
00000270: 1ce7 76bd bafc f0bd dfd6 cc3d 59a8 cc3d
00000280: 52d1 bebc 7691 c5bc 7bea 363d 0b60 45bd
00000290: b9c5 8a3d 65d7 073e 47bd 843d 6043 b4bb
000002a0: cf84 a23d 08e9 eb3d 61ca d53d 09ed bbbd
000002b0: 6cd1 9e3d 9d96 1abd 0185 ff3c a0e0 bdba
000002c0: 311f 90bd 4b57 e2bc 9ada 013e e062 d1bb
000002d0: 9252 183b 84c0 a93d 4fe7 843c d569 90bd
000002e0: c74f 98bc eb50 b5bd 1f9a 02be 5c37 1fbd
000002f0: bc43 13bc 9ffb cdbd 236c a1bd aacc 483c
00000300: e634 92bc e5a1 113e 101d d0bd a2c6 f43d
00000310: 628a 04be 63ae cebd 0321 013d a225 1dbd
00000320: e08b 9bbd d1e5 123e 0ed9 4c3d 21b1 523d
00000330: aae9 953d cbfd 5cbc 9af2 28bd d241 dd3d
00000340: c3cc 21bd 12db 0abd 7863 36bd c7c1 6ebc
00000350: 0f2f 633d aca1 7fbd 8016 b93d 176e b7bd
00000360: 5899 3d3d d3df 983c 991f 213d 1455 70bd
00000370: 980f efbd 9d17 45bd 0ca6 45bb fa4c 44bd
00000380: 045e fcbc 78e5 32bc 9d16 a03d f349 f1bd
00000390: 0e50 8fbc 7685 3ebd e717 43bd 70ec 593d
000003a0: 282e 62bc 6c8e 063e 77ae 163e dc7c 04be
000003b0: 18db 383d 72b3 fc3d 81de 7abd eb88 cb3d
000003c0: 65b1 02be 7d6a 56bd bd20 18bd 752e 323c
000003d0: e7be 3d3d 180a 113e 665b be3d ef04 9e3d
000003e0: 4fc1 8e3d 409b 32bc 4c22 e83c 54f8 803d
000003f0: b5aa 53bb ed0e e0bd eecd dabd abcf 0d3d

lstm.bias_ih_l1 f4 [256]
0.042603545 0.07211251 -0.09960023 0.1283875 0.06333322 0.02639316 -0.018723655 0.030511174
0.011818686 0.014834185 0.09221773 0.083443746 0.07563608 -0.013182734 -0.11983051 0.02965327
-0.1094054 0.06158953 -0.026376521 -0.029469518 0.1248412 -0.085591406 -0.040562518 -0.113717854
-0.047738437 -0.010030652 -0.15955915 -0.0552188 0.048395324 0.05388748 -0.035307664 -0.10096958
-0.09110204 0.08583505 0.018734623 0.033265304 0.029535446 0.071095295 -0.054739468 -0.051637497
0.07280527 -0.029800052 -0.047156453 0.011272981 -0.06877191 -0.09662703 -0.03153038 0.108543985
0.055943545 -0.04625345 -0.034149576 0.07809276 0.14179416 0.029036663 -0.052736532 0.096297055
-0.009202652 -0.04039832 -0.18663685 -0.00091690425 -0.06068127 0.05189858 -0.053327676 -0.065353036
0.060498115 0.027012035 -0.1261594 0.0015541477 -0.031938676 -0.040215444 -0.069933556 -0.10431525
0.038268197 -0.007345937 -0.016409507 -0.04479797 -0.013036588 0.094700545 0.011980607 0.11991499
0.07992424 0.035499968 -0.1620376 -0.040172625 -0.10917985 -0.04978743 -0.08789221 -0.09176455
0.13002777 0.040007457 0.012201253 0.07036177 0.06775998 0.07685728 0.09767203 0.009605589
0.11673155 -0.032896154 -0.015181403 -0.028604368 -0.09784529 -0.113895774 -0.0025670154 -0.109635
0.10338415 0.047091354 -0.12704696 -0.029352931 0.031264115 -0.014260023 -0.091837026 -0.02612545
0.09168097 -0.08414846 0.094378315 0.0713014 0.027339747 -0.029968638 0.007862032 -0.08429253
-0.021110225 -0.13656993 -0.025513254 -0.036029693 -0.044470612 -0.082294054 0.024952872 -0.03303751
-0.010043471 0.09225312 -0.008483298 -0.024852706 0.07881105 -0.09384044 0.08980815 -0.072949216
-0.023743233 0.062555455 0.011598723 0.028466744 0.11090993 -0.025427442 0.047244288 0.070766345
0.039354373 0.057334237 0.08377859 0.029783044 0.029918727 -0.0076270066 -0.029684322 -0.0032926672
-0.04653963 -0.08149954 -0.060755506 0.13806607 -0.08583215 0.05846499 0.09644849 -0.0004288874
-0.119963095 -0.086173736 0.07563984 -0.09494022 -0.04289162 0.0066634538 -0.110650845 -0.022149602
0.07476311 0.015711442 0.10948938 0.03529548 0.02195221 0.0021335988 -0.051303506 0.029129537
-0.054652203 0.05934012 0.0027974064 -0.01811434 0.08783043 0.12391268 0.076376595 -0.034104984
-0.047892313 -0.047542036 -0.0991953 0.037247263 -0.013583806 0.09037367 0.04786207 -0.04733788
-0.02930062 0.049743656 -0.077358395 -0.029469956 0.115592614 0.010755381 0.12785093 -0.03745075
0.06787574 0.0031905645 -0.08806753 0.096731625 0.0729461 -0.08790394 -0.07955739 0.07677442
0.031755768 0.054637175 -0.061458923 -0.10479101 0.08836186 0.047312867 -0.08312394 -0.05968352
-0.044433955 -0.055079874 -0.080777444 -0.0005036525 0.060389146 0.07411871 0.0967161 -0.032960124
0.12381763 0.09835371 0.059532344 -0.093416385 0.025879446 0.008741506 0.12289733 -0.09442267
0.06282626 -0.07254613 -0.021141434 0.036550142 -0.027132228 0.13914232 -0.020069115 0.08021883
-0.06447823 0.08990723 0.036788482 -0.06706625 -0.011745011 -0.04099158 -0.053125884 -0.064204626
0.017373284 -0.016090587 -0.1706116 -0.10165903 -0.034431268 -0.13340257 0.14396344 -0.11220494
00000000: 0e81 2e3d b9af 933d 35fb cbbd 0378 033e
00000010: d9b4 813d 7836 d83c 5a62 99bc 92f2 f93c
00000020: 29a3 413c 150b 733c a6dc bc3d 8ee4 aa3d
00000030: 17e7 9a3d 65fc 57bc b369 f5bd 6aeb f23c
00000040: f00f e0bd 4e45 7c3d 9313 d8bc 0f6a f1bc
00000050: beac ff3d 8c4a afbd e224 26bd e8e4 e8bd
00000060: 6189 43bd 9b57 24bc 7963 23be 1c2d 62bd
00000070: 2d3a 463d 1eb9 5c3d c59e 10bd 24c9 cebd
00000080: b593 babd 49ca af3d 5a79 993c 3341 083d
00000090: 52f4 f13c 699a 913d 7e36 60bd d781 53bd
000000a0: ee1a 953d 3d1f f4bc 2027 41bd 4fb2 383c
000000b0: 4ad8 8cbd 64e4 c5bd 0026 01bd 4f4c de3d
000000c0: 0f25 653d 4274 3dbd 6de0 0bbd 19ef 9f3d
000000d0: 7d32 113e 4cde ed3c 4302 58bd 6437 c53d
000000e0: b8c6 16bc b578 25bd bb1d 3fbe 675c 70ba
000000f0: ec8c 78bd 9b93 543d 1f6e 5abd d0d7 85bd
00000100: dfcc 773d 5848 dd3c ee2f 01be 8bb4 cb3a
00000110: 21d2 02bd f3b8 24bd 5339 8fbd 3ca3 d5bd
00000120: 1dbf 1c3d 30b6 f0bb 3b6d 86bc 147e 37bd
00000130: 6a97 55bc 5cf2 c13d 4f4a 443c fe95 f53d
00000140: 52af a33d 6a68 113d 2fed 25be 0d8c 24bd
00000150: af99 dfbd e7ed 4bbd d500 b4bd 0def bbbd
00000160: 0026 053e dcde 233d c4e7 473c d519 903d
00000170: bfc5 8a3d 5a67 9d3d 4608 c83d c360 1d3c
00000180: f310 ef3d 1ebe 06bd 6bbb 78bc b553 eabc
00000190: 1d63 c8bd 3042 e9bd 5f3b 28bb 5188 e0bd
000001a0: 12bb d33d dde2 403d 9918 02be 8f75 f0bc
000001b0: cd0e 003d dfa2 69bc 0d15 bcbd 0a05 d6bc
000001c0: 3bc3 bb3d 0756 acbd 6b49 c13d 7806 923d
000001d0: 9bf7 df3c ca80 f5bc c1cf 003c 90a1 acbd
000001e0: 5aef acbc fdd8 0bbe 2c01 d1bc df93 13bd
000001f0: d126 36bd c989 a8bd f769 cc3c 5752 07bd
00000200: 5f8d 24bc 34ef bc3d 88fd 0abc e797 cbbc
00000210: b067 a13d 6b2f c0bd 56ed b73d 6666 95bd
00000220: 2b81 c2bc 131d 803d 9208 3e3c 1733 e93c
00000230: bf24 e33d 364d d0bc 3a83 413d f2ed 903d
00000240: 0d32 213d 4ed7 6a3d 1c94 ab3d 92fb f33c
00000250: 1e18 f53c f8eb f9bb 892c f3bc cac9 57bb
00000260: 57a0 3ebd 3be9 a6bd c4da 78bd 3161 0d3e
00000270: c4c8 afbd fc78 6f3d c986 c53d 4bdc e0b9
00000280: 36af f5bd db7b b0bd 0fe9 9a3d 0570 c2bd
00000290: 20af 2fbd 1a59 da3b e99c e2bd 1573 b5bc
000002a0: 671d 993d 48b5 803c f83b e03d fe91 103d
000002b0: 1fd5 b33c d9d3 0b3b a023 52bd 11a1 ee3c
000002c0: fdda 5fbd a00e 733d b154 373b 8664 94bc
000002d0: 71e0 b33d eec5 fd3d 556b 9c3d abb1 0bbd
000002e0: bb2a 44bd 70bb 42bd e826 cbbd 9690 183d
000002f0: 9d8e 5ebc d515 b93d 050b 443d 5de5 41bd
00000300: db07 f0bc 01c0 4b3d 146e 9ebd fa6a f1bc
00000310: d2bb ec3d 5637 303c 5beb 023e f565 19bd
00000320: 7002 8b3d ca18 513b c05c b4bd 3b1b c63d
00000330: c464 953d fb06 b4bd fcee a2bd e83b 9d3d
00000340: 5612 023d 3bcb 5f3d 5abc 7bbd ab9c d6bd
00000350: 10f7 b43d 23cb 413d e23c aabd b576 74bd
00000360: 6100 36bd 6f9b 61bd a56e a5bd 8c07 04ba
00000370: 9c5a 773d 8dcb 973d 1713 c63d 3201 07bd
00000380: 1994 fd3d ab6d c93d 30d8 733d 1751 bfbd
00000390: 2201 d43c 8938 0f3c 98b1 fb3d ac60 c1bd
000003a0: 0eab 803d 1193 94bd cd30 adbc 9ab5 153d
000003b0: 6844 debc 537b 0e3e fc67 a4bc c549 a43d
000003c0: 2a0d 84bd 4821 b83d 85af 163d 085a 89bd
000003d0: 266e 40bc c9e6 27bd 879a 59bd b77d 83bd
000003e0: 6b52 8e3c 68d0 83bc cfb4 2ebe 9c32 d0bd
000003f0: cd07 0dbd af9a 08be 276b 133e b4cb e5bd
