models/trained_lstm_model.pth (torch, 221026 bytes, 12 tensors)

lstm.weight_ih_l0 f4 [256, 7]
0.0066724597 -0.14103697 -0.07844654 -0.122011095 0.10143938 -0.02811268 -0.011904435 -0.12195107
0.036300965 0.018316267 -0.03486907 0.02121432 0.10783811 0.03653797 -0.11039242 -0.0888058
0.03652383 -0.061027262 0.08565533 -0.02147225 -0.004818378 0.083589226 0.03390047 0.11018244
-0.026578307 0.022611788 0.11616716 -0.10037983 0.11709724 0.07214778 0.09380207 -0.05087796
-0.064997375 0.049307678 -0.09265566 -0.09611079 -0.06485233 -0.06042227 -0.05033575 0.004445426
-0.032926705 0.008828815 0.040098228 0.04589675 -0.031178618 -0.13625264 0.060356107 -0.04059488
0.09760245 0.013986907 -0.020576706 -0.10586468 -0.11066303 0.014737219 -0.053107027 0.115011185
-0.08400738 -0.0041899676 -0.06837555 0.10659215 0.05720544 0.0047807377 -0.03660759 0.0136332065
-0.019644164 -0.072931 0.03428432 0.025035532 0.11368731 -0.024520515 -0.009424602 0.013426052
-0.107404076 0.1081437 0.022816338 0.01770032 0.042160988 6.3684754e-05 0.03520805 0.11549594
-0.069654025 0.046520203 -0.072383024 -0.087139726 0.06227361 0.098205164 -0.04000567 0.043872938
-0.10117376 -0.06328068 0.0035851784 0.10790158 -0.0501602 -0.14055711 0.006464636 0.022591269
0.11326027 0.07692605 0.084385864 -0.073497616 0.008089964 0.119977765 0.08347666 -0.112708285
0.05867073 0.07566527 0.116611 0.06125591 -0.06606781 -0.103640035 0.060075726 0.13051923
0.073413245 -0.10610791 0.08400859 -0.07051447 -0.074486725 0.10109075 0.122003734 0.075226866
-0.0053186044 0.047256906 -0.018109007 -0.059869427 0.11802293 0.092270374 -0.07041416 0.04126833
0.07233512 0.07204642 -0.040515274 0.058619622 -0.022835383 -0.10161978 -0.10235163 -0.026371231
-0.09672167 0.013264993 -0.06384889 -0.01049226 -0.016768726 0.059454024 0.029781576 -0.009180189
0.10450002 0.07016313 -0.03287475 -0.094292216 -0.006365317 0.0881727 -0.02345893 -0.09686708
0.09034548 0.055759158 -0.035062373 0.0063367942 -0.012679757 -0.009919508 0.11777219 0.09362903
-0.05304796 0.010324298 -0.036407303 -0.030924428 -0.007237251 0.14501627 0.004254902 0.031916093
-0.055872962 -0.08410186 -0.011052546 -0.07708389 0.086696476 -0.061050795 0.103571825 0.056588452
-0.02592786 0.00056956086 -0.062212862 0.016276322 0.043609712 0.123983875 -0.07078613 0.080263875
0.119700365 0.12686953 0.064943716 0.14370032 0.10254802 -0.1110413 -0.0023820498 -0.009934541
-0.05932108 0.09304918 0.024002375 0.10983463 -0.10534909 -0.008047795 0.060795594 0.13222827
-0.07729729 0.14815077 0.14640702 -0.07408428 -0.00831568 0.081775576 -0.114467464 -0.1228718
-0.010872026 0.030963724 -0.10018934 -0.09950778 -0.007874056 -0.10907913 0.008564563 0.14213145
0.076296836 0.06979823 0.091334514 -0.088074595 -0.095127635 -0.042286985 -0.0148993125 -0.008882178
0.09681554 0.04259963 0.0071092793 0.051207542 -0.010576658 -0.07781944 -0.046979316 0.08595493
0.06686099 0.08732447 -0.09499439 0.046299268 0.13224746 0.013623479 -0.058910128 -0.14300618
0.050265715 -0.05112201 -0.009799004 -0.13330528 0.09717012 -0.016878383 0.06407053 -0.074452005
-0.06738221 -0.09070726 0.040433474 0.09147208 0.0714399 0.0881219 -0.040892377 -0.12599596
00000000: a6a4 da3b ff6b 10be 94a8 a0bd f4e0 f9bd
00000010: 73bf cf3d 904c e6bc d20a 43bc 7cc1 f9bd
00000020: 52b0 143d ff0b 963c dfd2 0ebd a7c9 ad3c
00000030: 3ada dc3d d7a8 153d 6c15 e2bd d1df b5bd
00000040: 039a 153d b9f7 79bd 106c af3d 92e6 afbc
00000050: 7ce3 9dbb d430 ab3d 38db 0a3d 55a7 e13d
00000060: c0ba d9bc 5b3c b93c 0ce9 ed3d f193 cdbd
00000070: aed0 ef3d 37c2 933d 4d1b c03d 6865 50bd
00000080: 581d 85bd d9f6 493d 40c2 bdbd bcd5 c4bd
00000090: 4cd1 84bd 587d 77bd dc2c 4ebd f0aa 913b
000000a0: 27de 06bd bca6 103c 0a3e 243d 3bfe 3b3d
000000b0: 4d6a ffbc d085 0bbe f737 773d d146 26bd
000000c0: cbe3 c73d 5729 653c 7b90 a8bc 95cf d8bd
000000d0: 4ca3 e2bd 6074 713c c186 59bd fc8a eb3d
000000e0: 100c acbd ff4b 89bb 7b08 8cbd fc4c da3d
000000f0: 4050 6a3d bca7 9c3b d7f1 15bd d05d 5f3c
00000100: ccec a0bc d95c 95bd b76d 0c3d 5117 cd3c
00000110: e4d4 e83d 3fdf c8bc a569 1abc f2f8 5b3c
00000120: abf6 dbbd 727a dd3d 54e9 ba3c 4300 913c
00000130: 00b1 2c3d 7e8e 8538 5136 103d 2389 ec3d
00000140: c5a6 8ebd f88b 3e3d 8d3d 94bd 5076 b2bd
00000150: 9d12 7f3d ca1f c93d fcdc 23bd 1cb4 333d
00000160: 3034 cfbd 4d99 81bd 50f5 6a3b 81fb dc3d
00000170: c874 4dbd 34ee 0fbe 4cd5 d33b 5311 b93c
00000180: 00f5 e73d 688b 9d3d 7fd2 ac3d eb85 96bd
00000190: c58b 043c e7b6 f53d d0f5 aa3d 9ad3 e6bd
000001a0: b850 703d 65f6 9a3d bfd1 ee3d 7ae7 7a3d
000001b0: 8f4e 87bd 3a41 d4bd f711 763d d5a6 053e
000001c0: af59 963d 1b4f d9bd b20c ac3d e469 90bd
000001d0: 7f8c 98bd ab08 cf3d 18dd f93d 8b10 9a3d
000001e0: b047 aebb 7590 413d 5759 94bc a539 75bd
000001f0: 02b6 f13d 40f8 bc3d 4d35 90bd fb08 293d
00000200: 6f24 943d 138d 933d 58f3 25bd 211b 703d
00000210: 4511 bbbc 081e d0bd bb9d d1bd 7b08 d8bc
00000220: 0316 c6bd 6a55 593c 35c3 82bd bae7 2bbc
00000230: 915e 89bc 1086 733d 7ef8 f33c 8168 16bc
00000240: 1b04 d63d b0b1 8f3d ada7 06bd 471c c1bd
00000250: 2694 d0bb e393 b43d f12c c0bc 3f62 c6bd
00000260: 0d07 b93d b763 643d 909d 0fbd e2a4 cf3b
00000270: c1be 4fbc 6f85 22bc 8c32 f13d 94c0 bf3d
00000280: d148 59bd 3f27 293c d31f 15bd 3a55 fdbc
00000290: 7626 edbb 257f 143e b46c 8b3b 73ba 023d
000002a0: 0cdb 64bd 993d acbd bd15 35bc 29de 9dbd
000002b0: ec8d b13d 6610 7abd 771d d43d 4bc9 673d
000002c0: aa66 d4bc 954e 153a ead2 7ebd ec55 853c
000002d0: 19a0 323d 42eb fd3d 52f8 90bd 6361 a43d
000002e0: 7725 f53d 16ea 013e 3601 853d 2d26 133e
000002f0: b204 d23d 9f69 e3bd 2a1c 1cbb 7cc4 22bc
00000300: a9fa 72bd 9290 be3d a1a0 c43c faf0 e03d
00000310: 44c1 d7bd e6da 03bc cd04 793d d966 073e
00000320: 0b4e 9ebd d6b4 173e b9eb 153e 80b9 97bd
00000330: 7d3e 08bc f479 a73d eb6d eabd 36a4 fbbd
00000340: 9520 32bc a3a7 fd3c 1230 cdbd bcca cbbd
00000350: 2f02 01bc e164 dfbd 6152 0c3c e88a 113e
00000360: 8441 9c3d 60f2 8e3d 970d bb3d 7460 b4bd
00000370: 47d2 c2bd 1e35 2dbd 3f1c 74bc 8e86 11bc
00000380: 3a47 c63d f37c 2e3d f5f4 e83b 00bf 513d
00000390: b849 2dbc cc5f 9fbd 626d 40bd 2309 b03d
000003a0: 6aee 883d 2cd7 b23d 6b8c c2bd 4da4 3d3d
000003b0: e16b 073e 0335 5f3c bf4b 71bd 3670 12be
000003c0: 6ce3 4d3d 5065 51bd 008c 20bc 2e81 08be
000003d0: 2101 c73d 8944 8abc 6937 833d 4b7a 98bd
000003e0: afff 89bd bac4 b9bd 929d 253d b755 bb3d
000003f0: 154f 923d 4179 b43d c47e 27bd 1605 01be

lstm.weight_hh_l0 f4 [256, 64]
-0.019739069 -0.0035689494 -0.08160312 -0.04555108 -0.026574763 -0.069361664 -0.11150675 -0.030241631
0.0042688916 -0.0983122 -0.04367835 -0.024678268 -0.11554538 0.027586486 0.050301194 -0.11541636
0.07496333 -0.06397909 -0.056467235 0.082922556 -0.091237485 0.015139954 0.05887078 0.021505194
0.12203421 -0.03175953 -0.06288952 -0.05811713 -0.02992725 -0.082667015 -0.055541832 0.06153004
0.010781313 -0.07008177 0.08849512 -0.07814186 -0.009506122 -0.06535769 -0.09525898 0.03630744
0.07961942 -0.043549705 0.066439174 -0.023621036 -0.08367307 -0.027910575 0.10421178 0.031225825
0.02183552 0.08006853 0.05974754 0.08344364 -0.039533876 0.040053505 -0.09656655 -0.052990124
0.03847498 -0.05107828 -0.05701358 0.060017515 0.113861345 0.06992752 -0.018547127 0.091769464
-0.123253636 -0.09733204 0.059669208 -0.030373115 -0.059676673 -0.10343232 0.08663021 0.027007869
0.106647596 0.09869339 -0.047030427 -0.037253037 0.102708876 -0.009959176 0.04311781 0.031038929
-0.038546197 -0.028462892 -0.12057762 -0.045760665 -0.024683552 -0.011968789 0.037908513 -0.099703275
-0.036173355 -0.054491557 0.03750295 0.045980047 -0.031398367 0.09478067 0.025680253 -0.0905677
0.0029886777 0.05016002 0.03195685 0.09572614 0.020678012 -0.060682196 0.07384159 0.10098854
-0.019347383 0.085480414 -0.12242015 -0.116921954 0.006696408 0.032406557 -0.093231276 -0.0961146
-0.098178916 -0.09487944 0.11326694 -0.08316274 -0.028401159 -0.018237663 -0.017587086 -0.01557649
0.0880052 -0.0976681 -0.014480897 0.059928063 -0.071894504 -0.10173518 0.10335277 -0.05790408
-0.120822854 0.018550796 0.09674838 0.050821148 -0.08099586 -0.0077030784 -0.046901044 0.1022153
0.033148956 0.018753935 0.03811986 -0.023806123 -0.0317857 -0.09340291 -0.06656797 -0.012826072
-0.04933483 0.024074094 -0.085506715 -0.092292435 -0.078212254 0.094081365 0.049760055 -0.079235874
-0.04146465 -0.048790045 0.08234062 0.056891527 -0.046353288 -0.047768332 0.02123156 0.078821376
0.023710007 0.07499698 -0.07340517 0.028523372 -0.0992989 -0.05227488 -0.023382809 -0.09422985
0.05064855 0.04701557 -0.1201255 0.09065383 0.01940895 -0.09225592 -0.049466494 -0.12167559
-0.066362895 0.0044521694 -0.10663923 0.007834325 -0.05374864 -0.093946554 -0.03768669 -0.10864105
0.010145563 -0.03501318 -0.060158465 -0.0056505613 -0.053745747 0.030219413 -0.058912292 0.11074369
-0.015992787 -0.09563544 -0.10752859 -0.04203323 0.12586807 0.08069598 -0.13916636 0.10676658
-0.05808521 -0.017890776 -0.11271673 -0.08085657 0.105543494 -0.052314322 -0.014493367 0.08573623
0.09737518 0.042728484 0.08701269 0.07734802 0.11101127 0.0995239 0.031988814 -0.10428743
0.046683393 0.06382201 0.051481374 0.09920986 0.01050549 0.031814966 -0.05521748 0.106436305
0.06421855 0.02275715 -0.036222007 0.047819026 0.06387985 0.03494479 0.020745847 0.042907853
0.05494174 0.048609372 0.07520795 0.07575686 -0.055900127 0.116137944 -0.07815186 -0.07150316
0.07447926 -0.025074854 0.06766043 -0.093732804 -0.01849024 -0.03324211 -0.02600904 -0.10925316
0.045444276 0.03782345 0.12757745 0.09158084 -0.026298681 -0.12034756 -0.083492614 -0.032373637
00000000: d4b3 a1bc 09e5 69bb 891f a7bd c593 3abd
00000010: 51b3 d9bc 7d0d 8ebd a75d e4bd 4cbd f7bc
00000020: 0fe2 8b3b e857 c9bd 12e8 32bd 142a cabc
00000030: 0ea3 ecbd 0efd e13c a008 4e3d 6a5f ecbd
00000040: 6086 993d 7807 83bd 304a 67bd 4dd3 a93d
00000050: b8da babd 920d 783c 7d22 713d a92b b03c
00000060: 12ed f93d 4816 02bd 38cc 80bd 3a0c 6ebd
00000070: fe29 f5bc 534d a9bd d57f 63bd ec06 7c3d
00000080: 1ba4 303c 0887 8fbd ee3c b53d d708 a0bd
00000090: 91bf 1bbc 41da 85bd 2417 c3bd 1cb7 143d
000000a0: 820f a33d 2d61 32bd 4311 883d e780 c1bc
000000b0: c95c abbd b8a4 e4bc fc6c d53d 4dcd ff3c
000000c0: 68e0 b23c f8fa a33d d6b9 743d 80e4 aa3d
000000d0: 46ee 21bd 250f 243d afc4 c5bd 2c0c 59bd
000000e0: f197 1d3d 7537 51bd 1287 69bd edd4 753d
000000f0: 2330 e93d 2936 8f3d 25f0 97bc a1f1 bb3d
00000100: 676c fcbd 0556 c7bd b367 743d 0ad1 f8bc
00000110: 876f 74bd 53d4 d3bd 2e6b b13d 9b3f dd3c
00000120: 0e6a da3d c31f ca3d faa2 40bd a496 18bd
00000130: 0859 d23d d02b 23bc 4d9c 303d 5a45 fe3c
00000140: 9ee2 1dbd 032b e9bc 66f1 f6bd 896f 3bbd
00000150: 2935 cabc bd18 44bc f545 1b3d 3b31 ccbd
00000160: 832a 14bd 8a32 5fbd b19c 193d 9355 3c3d
00000170: 939b 00bd 5e1c c23d 655f d23c 8f7b b9bd
00000180: b1dd 433b 9874 4d3d 30e5 023d 110c c43d
00000190: ef64 a93c e58d 78bd 423a 973d 14d3 ce3d
000001a0: 677e 9ebc 5b10 af3d 6ab7 fabd c774 efbd
000001b0: 8b6d db3b bdbc 043d 0af0 bebd bbd7 c4bd
000001c0: 0712 c9bd 2750 c2bd 7ff8 e73d 3a51 aabd
000001d0: 8ca9 e8bc 2767 95bc cb12 90bc 8934 7fbc
000001e0: 123c b43d 3606 c8bd 4941 6dbc 2177 753d
000001f0: 6d3d 93bd 895a d0bd 9eaa d33d d42c 6dbd
00000200: f971 f7bd d7f7 973c 0424 c63d d629 503d
00000210: 28e1 a5bd 1b6a fcbb 4f1b 40bd 4156 d13d
00000220: 33c7 073d daa1 993c 9223 1c3d 0f05 c3bc
00000230: b931 02bd 064a bfbd ca54 88bd 7224 52bc
00000240: 5213 4abd 0937 c53c 251e afbd d103 bdbd
00000250: bf2d a0bd bbad c03d 33d1 4b3d 6b46 a2bd
00000260: d6d6 29bd 12d8 47bd 33a2 a83d 1707 693d
00000270: f2dc 3dbd baa8 43bd cfed ad3c 1a6d a13d
00000280: 7d3b c23c 0498 993d 7355 96bd d9a9 e93c
00000290: 395d cbbd 2f1e 56bd 4e8d bfbc 94fb c0bd
000002a0: db74 4f3d 6693 403d 5c04 f6bd b7a8 b93d
000002b0: 85ff 9e3c acf0 bcbd 619d 4abd 0d31 f9bd
000002c0: 45e9 87bd 81e3 913b ab65 dabd 8a5b 003c
000002d0: 8927 5cbd 0d67 c0bd 5c5d 1abd 337f debd
000002e0: 9339 263c fb69 0fbd b968 76bd 5828 b9bb
000002f0: 8024 5cbd b48e f73c 044e 71bd 96cd e23d
00000300: 4e03 83bc 83dc c3bd f337 dcbd 092b 2cbd
00000310: 8fe3 003e ef43 a53d a081 0ebe 70a8 da3d
00000320: c2ea 6dbd ad8f 92bc 07d8 e6bd 2198 a5bd
00000330: 3027 d83d 8b47 56bd 9675 6dbc 7a96 af3d
00000340: a36c c73d 1004 2f3d b633 b23d a468 9e3d
00000350: e059 e33d 30d3 cb3d b406 033d a694 d5bd
00000360: 1637 3f3d 1db5 823d 22de 523d 8a2e cb3d
00000370: 381f 2c3c 6950 023d b92b 62bd 47fb d93d
00000380: 0485 833d 346d ba3c 875d 14bd e2dd 433d
00000390: 70d3 823d 4522 0f3d 32f3 a93c 25c0 2f3d
000003a0: 970a 613d 9f1a 473d a006 9a3d 6a26 9b3d
000003b0: 88f7 64bd bbd9 ed3d 150e a0bd 4070 92bd
000003c0: 9588 983d c869 cdbc 8d91 8a3d fcf6 bfbd
000003d0: d878 97bc e128 08bd e910 d5bc 1fc0 dfbd
000003e0: c723 3a3d c3ec 1a3d aaa3 023e bc8e bb3d
000003f0: 5570 d7bc c878 f6bd 2dfe aabd 389a 04bd

lstm.bias_ih_l0 f4 [256]
-0.06477654 -0.023813734 -0.105230086 -0.004980632 0.022624176 0.0678424 0.042009804 0.07273634
0.04744937 0.07928766 0.1388552 -0.08381589 0.07216282 -0.027067665 0.0032723714 0.1180311
-0.01940967 -0.02368265 -0.048085243 0.09552098 -0.051331867 0.09367687 0.13847472 -0.08988448
0.11572186 0.12164521 0.115807466 -0.07742296 0.053923845 -0.04542841 0.030315833 0.05034636
0.06239714 0.03977534 0.07336265 0.107085034 -0.099354565 0.004674187 0.11063064 0.11362801
0.03832208 -0.06371944 -0.06744053 -0.0028273058 0.042291407 0.004210873 0.11907909 0.029037984
0.026063727 0.100406796 -0.078619085 -0.103076905 -0.036154196 0.044422183 0.07487921 0.04092107
-0.10031057 0.118007086 -0.023772538 0.047129206 -0.0915263 -0.09539828 -0.07978524 0.024246188
-0.10450836 -0.016149282 0.02709624 0.083070986 0.08898117 0.0030052576 -0.08833392 -0.033148322
-0.10672285 0.0442529 0.077943586 0.06576191 -0.1122997 -0.011688718 0.017147046 0.063805975
0.06620504 0.087587416 0.0007117851 -0.08700851 0.0083137555 -0.021626255 -0.09892129 0.13022605
-0.046961807 -0.028334938 0.13069707 0.08797051 0.007864197 0.0648831 0.06481557 -0.042402115
0.020796364 0.09576154 -0.046396885 -0.03985359 -0.13196969 -0.057714254 0.11018106 0.047624614
-0.08647459 -0.023816358 -0.11745076 0.10078877 0.08337194 0.06184343 -0.0904096 -0.07921339
-0.02344839 0.083126366 -0.14159356 -0.08540394 -0.018470075 -0.048860382 0.10814252 -0.022661075
-0.060201854 -0.032120388 -0.020110875 -0.05295101 -0.06462245 -0.08701082 0.018719753 -0.07528475
0.024997728 -0.06819535 0.09369879 0.0041693146 0.08675596 -0.03641077 0.089917235 0.066606514
0.06614959 0.042123787 0.066465475 -0.038340297 -0.028867168 -0.09068904 0.01885129 0.13037656
0.044380404 0.00014981229 0.10057376 -0.1223018 -0.020827198 -0.04328822 0.022945203 0.10056484
-0.05885824 0.030958448 -0.10145612 0.018800654 -0.03227127 0.04774385 -0.058701325 0.019491276
0.07943901 -0.08562802 -0.04845595 0.06358185 -0.114620656 0.06628343 0.03788269 -0.099431634
0.05116914 -0.03437295 -0.033142544 -0.040085535 -0.11882136 0.008349181 0.060316727 0.055657707
-0.0760276 0.01725669 -0.03736144 -0.037903417 -0.02566258 0.023608735 -0.072911 -0.10939465
-0.12533027 -0.084199935 0.025918998 0.066104345 0.12689216 0.109455265 -0.13890819 -0.06399305
0.11328758 -0.06939072 0.08380842 0.08724327 0.029067663 0.114461616 -0.085005924 -0.008575676
0.01199399 0.08937813 -0.018825423 -0.06516504 -0.0058528623 -0.041951478 -0.0064578126 -0.066092335
0.03207592 0.039266825 -0.04829711 -0.003995558 0.072338946 0.14440723 0.13613357 0.04814718
0.09445515 -0.07338536 -0.018948957 -0.0109107895 -0.048758272 -0.04333531 -0.022519898 -0.021463815
0.1339408 -0.020402573 -0.08794751 0.11411528 -0.06465731 0.12029175 -0.05941302 -0.041439578
0.029932376 -0.13152666 0.113440104 -0.015165387 0.066253245 -0.0707706 0.028163515 0.05027612
0.022524467 0.013982681 0.10316872 -0.106468506 0.12759309 0.09433127 -0.09122221 0.016643204
0.0042649033 0.11588441 -0.063924804 0.03396387 0.03221229 0.07932923 -0.053789616 0.12535973
00000000: 90a9 84bd 0515 c3bc df82 d7bd 9234 a3bb
00000010: 5656 b93c f5f0 8a3d 7912 2c3d caf6 943d
00000020: 455a 423d 9261 a23d 0f30 0e3e aaa7 abbd
00000030: 1aca 933d 02bd ddbc 4875 563b 4aba f13d
00000040: 0701 9fbc 1e02 c2bc 08f5 44bd 81a0 c33d
00000050: 5d41 52bd a9d9 bf3d 51cc 0d3e 5b15 b8bd
00000060: 95ff ec3d 2021 f93d 772c ed3d ee8f 9ebd
00000070: 40df 5c3d 2413 3abd e958 f83c fc37 4e3d
00000080: 2594 7f3d 78eb 223d 283f 963d 664f db3d
00000090: 687a cbbd ec29 993b 5192 e23d cdb5 e83d
000000a0: 9df7 1c3d 567f 82bd 431e 8abd 524a 39bb
000000b0: c139 2d3d 5dfb 893b bddf f33d 11e1 ed3c
000000c0: 9983 d53c 14a2 cd3d 0b03 a1bd fc19 d3bd
000000d0: 6c16 14bd 09f4 353d 455a 993d da9c 273d
000000e0: a16f cdbd b3ad f13d a0be c2bc 8e0a 413d
000000f0: 2472 bbbd 2c60 c3bd 7266 a3bd f19f c63c
00000100: 7b08 d6bd 804b 84bc eff8 dd3c 1f21 aa3d
00000110: c23b b63d dbf3 443b 6ae8 b4bd 89c6 07bd
00000120: 8291 dabd 8742 353d e3a0 9f3d 2eae 863d
00000130: 63fd e5bd 0982 3fbc f677 8c3c b5ac 823d
00000140: 8296 873d 0861 b33d 1797 3a3a 8531 b2bd
00000150: 6b36 083c 8b29 b1bc 3f97 cabd fa59 053e
00000160: 065b 40bd ac1e e8bc 74d5 053e e229 b43d
00000170: d5d8 003c 6ee1 843d 07be 843d d7ad 2dbd
00000180: 235d aa3c a01e c43d a90a 3ebd 853d 23bd
00000190: 1023 07be c865 6cbd 9ca6 e13d 0712 433d
000001a0: 9719 b1bd 861a c3bc 068a f0bd 586a ce3d
000001b0: e8be aa3d 894f 7d3d ab28 b9bd a13a a2bd
000001c0: d716 c0bc 283e aa3d e7fd 10be 43e8 aebd
000001d0: 8e4e 97bc d321 48bd d379 dd3d b8a3 b9bc
000001e0: 3896 76bd ab90 03bd 90bf a4bc 29e3 58bd
000001f0: c658 84bd bb32 b2bd 2b5a 993c e42e 9abd
00000200: 09c8 cc3c 01aa 8bbd 27e5 bf3d bf9e 883b
00000210: 1cad b13d 7623 15bd 8726 b83d ff68 883d
00000220: 7079 873d fe89 2c3d 0d1f 883d b70a 1dbd
00000230: d77a ecbc 2dbb b9bd 056e 9a3c 6f81 053e
00000240: 3ac8 353d ee16 1d39 9ef9 cd3d 5e79 fabd
00000250: cd9d aabc fd4e 31bd 94f7 bb3c f0f4 cd3d
00000260: 5615 71bd 929c fd3c 3ac8 cfbd d403 9a3c
00000270: e12e 04bd 0e8f 433d cd70 70bd 2bac 9f3c
00000280: ebb0 a23d be5d afbd bf79 46bd 3337 823d
00000290: 3cbe eabd 9bbf 873d e12a 1b3d d0a2 cbbd
000002a0: bb96 513d a7ca 0cbd 7ac0 07bd bb30 24bd
000002b0: 9d58 f3bd 01cb 083c ac0e 773d 56f9 633d
000002c0: 5cb4 9bbd e75d 8d3c 4f08 19bd 9d40 1bbd
000002d0: 553a d2bc 1b67 c13c 5d52 95bd 4d0a e0bd
000002e0: 9456 00be 0471 acbd 1454 d43c b761 873d
000002f0: 05f0 013e 152a e03d f33d 0ebe ca0e 83bd
00000300: 5203 e83d b91c 8ebd c0a3 ab3d 99ac b23d
00000310: 4f1f ee3c da6a ea3d 9617 aebd fe80 0cbc
00000320: 7182 443c e20b b73d c637 9abc 4075 85bd
00000330: 5ec9 bfbb 50d5 2bbd 0f9c d3bb 6b5b 87bd
00000340: 0a62 033d 40d6 203d 31d3 45bd 2bed 82bb
00000350: 7126 943d 7ddf 133e 9966 0b3e fa35 453d
00000360: b471 c13d 104b 96bd d83a 9bbc 2bc3 32bc
00000370: c1b6 47bd 5e80 31bd a67b b8bc e2d4 afbc
00000380: c727 093e 4c23 a7bc d31d b4bd 46b5 e93d
00000390: 0d6b 84bd 855b f63d 115b 73bd 8cbc 29bd
000003a0: be34 f53c edae 06be 4953 e83d 3e78 78bc
000003b0: c8af 873d 2df0 90bd 2cb7 e63c 55ee 4d3d
000003c0: 3b85 b83c 9d17 653c 1f4a d33d 290c dabd
000003d0: c3a7 023e c130 c13d b6d2 babd 5457 883c
000003e0: 9ac0 8b3b ce54 ed3d 02eb 82bd b31d 0b3d
000003f0: 09f1 033d 5d77 a23d 8052 5cbd 4d5e 003e

lstm.bias_hh_l0 f4 [256]
-0.02001288 -0.07206127 0.009298762 0.047414515 0.044539735 -0.0035767462 0.05723652 0.052343864
0.10730732 0.050933316 -0.029590104 -0.10341452 -0.03437863 0.02548496 0.031581245 0.13103953
-0.09809118 0.12522677 0.06970526 0.04150591 0.05176347 0.0728568 0.113357954 -0.04328687
0.0030463964 0.00902216 -0.09619864 0.07348317 0.116143554 -0.057676166 0.093872435 0.12084498
0.018093651 0.11548587 -0.075753495 0.09883425 0.090879515 0.029701853 0.044320986 0.005358048
0.09268719 0.014955318 0.10049557 -0.03834568 -0.114598766 0.102615975 0.087102704 0.094512984
0.093304336 0.064195916 -0.09710365 0.07523489 0.1254482 -0.05024676 0.051314726 -0.016010007
0.08813966 -0.0345904 -0.021043226 0.10405452 -0.06697784 -0.09681694 -0.051404133 -0.020764101
-0.085532404 -0.008435461 0.057177532 -0.12184619 -0.0712056 -0.10352385 -0.12655105 0.011404005
-0.0034226195 -0.09374173 -0.08649913 0.016247144 0.020259473 -0.0231498 -0.021887394 0.10558552
-0.047931958 -0.06370282 0.057853416 -0.046874207 -0.11667584 -0.02876515 0.12708457 0.115047604
0.06492086 -0.0838914 0.0606253 -0.09416023 -0.0623703 0.03935387 0.026017785 0.1296113
0.015312412 -0.07265858 -0.116406724 -0.093085304 0.08910585 -0.08632278 0.0139427865 -0.0010018076
0.1211359 0.04481234 -0.005265721 -0.061565984 -0.0106512355 0.03717704 -0.023618001 -0.014052378
-0.10360008 0.09273125 -0.02545003 -0.01782208 0.058639325 0.09626195 -0.100151174 -0.09802959
0.061872043 0.002184748 -0.12101853 0.060508225 0.07901685 -0.10818588 -0.06438694 -0.07609381
0.07063258 0.042006858 -0.058906723 0.003943919 0.04788568 0.030612327 -0.11926059 0.11428668
-0.009878254 0.021629736 -0.078862816 -0.009508449 0.13005787 -0.0642572 -0.03400911 0.112552434
-0.12590021 -0.13546349 0.023227753 0.06523034 -0.07656198 0.13934942 0.017041568 0.14567032
0.11188111 -0.0021639643 -0.027996771 -0.09031143 -0.1050553 0.091369756 -0.09867862 0.13546348
0.0862856 0.11211964 0.022600478 0.057404447 0.044844843 -0.10638755 0.118653655 0.08788434
-0.08434547 -0.06580169 -0.013395734 0.033732634 0.08053278 0.05330475 0.13973753 0.022104276
0.007532103 -0.09032718 -0.018693354 -0.13096511 0.065619305 -0.09828244 0.09941954 -0.0715287
0.082693405 0.04790544 0.08833506 -0.04653811 0.11070992 -0.08120368 0.03903138 -0.02306161
-0.12440561 0.07228211 0.009780925 -0.11651208 -0.08857234 0.11144145 -0.117787495 -0.04770471
-0.015442237 0.093082055 -0.099749245 -0.07048813 0.09398969 -0.11720057 0.008265289 0.09079761
0.09842699 0.13935177 -0.06863237 0.081983246 -0.11165669 0.014753761 -0.04990288 0.07548546
0.047730077 0.09123823 -0.04255607 0.054459386 0.14632499 0.019687207 -0.07920955 0.064400956
0.07931098 0.014836643 -0.10564541 0.014369745 -0.0019886247 0.004320605 -0.05903143 -0.031159608
-0.07103195 -0.08568036 0.077383064 -0.040235516 -0.092664704 -0.027068624 0.03760778 0.03130308
0.121044956 -0.056568958 0.047967833 -0.010577637 0.09570376 -0.026138423 -0.07143848 0.06289792
-0.11140436 0.030468823 -0.011873724 -0.12764929 -0.020531002 -0.09443783 -0.07717594 0.11142914
00000000: 0df2 a3bc dc94 93bd d659 183c b935 423d
00000010: 4c6f 363d d867 6abb d770 6a3d 8566 563d
00000020: f1c3 db3d 749f 503d f266 f2bc feca d3bd
00000030: 9bd0 0cbd d6c5 d03c 565b 013d 3a2f 063e
00000040: 07e4 c8bd 723b 003e a2c1 8e3d 1a02 2a3d
00000050: ef05 543d f235 953d 3728 e83d 934d 31bd
00000060: 0da6 473b afd1 133c cb03 c5bd 587e 963d
00000070: acdc ed3d d83d 6cbd 3140 c03d 937d f73d
00000080: 2339 943c db83 ec3d a624 9bbd 9c69 ca3d
00000090: 0a1f ba3d 4d51 f33c ec89 353d 9092 af3b
000000a0: c8d2 bd3d 2607 753c 9fd0 cd3d 5c10 1dbd
000000b0: c2b2 eabd 5328 d23d e762 b23d 0690 c13d
000000c0: 5816 bf3d 2679 833d 47de c6bd c014 9a3d
000000d0: 7e75 003e 8ccf 4dbd 642f 523d 6b27 83bc
000000e0: 9182 b43d aaae 0dbd d862 acbc 891a d53d
000000f0: ae2b 89bd f647 c6bd 248d 52bd 7a19 aabc
00000100: 9d2b afbd e334 0abc fd32 6a3d 7f8a f9bd
00000110: 3ed4 91bd 5004 d4bd 9996 01be ddd7 3a3c
00000120: 074e 60bb aafb bfbd 7526 b1bd bb18 853c
00000130: 32f7 a53c a6a4 bdbc 314d b3bc 393d d83d
00000140: 4d54 44bd a076 82bd b4f7 6c3d 2bff 3fbd
00000150: bef3 eebd e4a4 ebbc 7522 023e 149e eb3d
00000160: 3af5 843d 41cf abbd 3c52 783d 14d7 c0bd
00000170: 0078 7fbd 8631 213d 4023 d53c d3b8 043e
00000180: e9e0 7a3c 06ce 94bd a666 eebd 82a3 bebd
00000190: 217d b63d ffc9 b0bd 4970 643c 164f 83ba
000001a0: 1916 f83d 258d 373d 128c acbb 9d2c 7cbd
000001b0: 8582 2ebc f446 183d 8a7a c1bc f23b 66bc
000001c0: 472c d4bd e2e9 bd3d 957c d0bc 9cff 91bc
000001d0: ca2f 703d fc24 c53d 0f1c cdbd bdc3 c8bd
000001e0: 8a6d 7d3d fd2d 0f3b 90d8 f7bd 79d7 773d
000001f0: 96d3 a13d 8f90 ddbd 4ddd 83bd 12d7 9bbd
00000200: d0a7 903d 620f 2c3d 2d48 71bd fe3b 813b
00000210: c623 443d b4c6 fa3c e53e f4bd 230f ea3d
00000220: 66d8 21bc d830 b13c d482 a1bd 53c9 1bbc
00000230: e42d 053e 4799 83bd 234d 0bbd e481 e63d
00000240: fceb 00be f1b6 0abe 2148 be3c 7c97 853d
00000250: 87cc 9cbd 9db1 0e3e c29a 8b3c 9a2a 153e
00000260: ec21 e53d 4cd1 0dbb 7c59 e5bc 33f5 b8bd
00000270: 3c27 d7bd 1120 bb3d 0418 cabd f0b6 0a3e
00000280: 81b6 b03d fb9e e53d a324 b93c ed20 6b3d
00000290: 3aaf 373d b7e1 d9bd b000 f33d b4fc b33d
000002a0: 51bd acbd 09c3 86bd c879 5bbc 3b2b 0a3d
000002b0: 5fee a43d 1556 5a3d 5b17 0f3e 0714 b53c
000002c0: dccf f63b 75fd b8bd ce22 99bc b81b 06be
000002d0: 6a63 863d 4e48 c9bd 799c cb3d a47d 92bd
000002e0: 295b a93d 7f38 443d 03e9 b43d bf9e 3ebd
000002f0: e2bb e23d 1d4e a6bd 5edf 1f3d b4eb bcbc
00000300: 5ec8 febd a508 943d 2c40 203c e39d eebd
00000310: 6a65 b5bd 6a3b e43d 923a f1bd 0466 43bd
00000320: 7001 7dbc cea1 be3d 5549 ccbd 155c 90bd
00000330: ab7d c03d da06 f0bd 226b 073c 19f4 b93d
00000340: 1794 c93d 3bb2 0e3e 218f 8cbd d5e6 a73d
00000350: 43ac e4bd c2b9 713c f666 4cbd 1f98 9a3d
00000360: 9d80 433d 1cdb ba3d 464f 2ebd ce10 5f3d
00000370: 38d6 153e 1147 a13c 9e38 a2bd a6e4 833d
00000380: cc6d a23d 6415 733c 9f5c d8bd 146f 6b3c
00000390: 9653 02bb dd93 8d3b f1ca 71bd 6f42 ffbc
000003a0: 3379 91bd 2f79 afbd 037b 9e3d ffcd 24bd
000003b0: fec6 bdbd 05bf ddbc 9e0a 1a3d a937 003d
000003c0: 6be6 f73d dab4 67bd eb79 443d d34d 2dbc
000003d0: 5500 c43d 3f20 d6bc 564e 92bd a0d0 803d
000003e0: f827 e4bd c199 f93c 028a 42bc 7fb6 02be
000003f0: a230 a8bc 9f68 c1bd 6b0e 9ebd f634 e43d

lstm.weight_ih_l1 f4 [256, 64]
0.12298462 0.12680861 -0.10097294 -0.026716793 -0.09505196 -0.098318115 0.05954225 -0.08285303
0.13188905 0.047424734 0.0051542097 -0.022546085 0.03470595 -0.05842259 -0.13701968 0.06320833
0.010997036 -0.022575915 -0.010623452 -0.044919524 0.09587834 0.06764728 0.07420788 -0.017268425
-0.059730794 -0.09437992 -0.023106411 -0.042032264 -0.11737311 0.13372359 -0.09297911 -0.029064523
0.0005036182 -0.030695539 0.025022477 0.12678316 -0.049716704 -0.006340831 0.027001685 0.08667211
0.09064654 0.10657226 -0.09970077 -0.027128428 -0.08101539 -0.083919615 -0.009612887 0.00963188
0.075630136 -0.14285298 0.061576188 0.009720176 0.08487232 -0.043636024 0.13348226 -0.14196414
0.054540996 -0.04300077 0.08038947 0.08708199 -0.01577159 0.09583389 -0.10522017 -0.066788666
0.112741485 -0.034939535 0.10916226 0.030092819 0.0268146 0.103107676 -0.06784017 0.038392298
-0.03592348 0.013782675 -0.077612236 0.123680316 0.059418518 0.028985232 -0.06872623 0.013030037
-0.09168803 -0.11575965 0.0036086997 0.0036244157 -0.05496112 0.021495406 -0.043118738 0.0016306128
-0.0067461673 -0.07718928 0.055251785 0.07937106 -0.011041897 -0.12947117 0.051649462 -0.032180775
0.060061723 -0.08250761 0.10546186 0.09003515 -0.08592548 -0.038933136 -0.058276635 -0.036313437
-0.0020791925 0.072386235 0.08763592 -0.011694586 -0.007618996 0.10686892 0.03526357 -0.1161325
0.04764351 0.003647371 -0.057272676 -0.09414768 0.005136277 -0.036040146 -0.062115513 0.1004641
-0.024399955 0.022724422 0.029746294 0.07537771 0.09497421 0.11502509 -0.01908905 0.119862616
-0.06410099 -0.04380587 -0.049446482 -0.056224905 0.010354096 -0.09947192 -0.038209982 -0.037318103
-0.054574165 0.021458825 0.046789035 0.04995507 -0.003929168 0.106046215 0.030124608 -0.041589342
0.02255036 0.03664381 0.0576554 0.019518647 0.03397287 -0.0799439 0.102728 0.10771357
-0.048477534 -0.10286957 0.07120907 -0.031824317 0.09099284 -0.056789283 -0.0823992 0.14153096
0.061114963 -0.012211454 -0.09191317 -0.07827708 0.0005762078 -0.057581116 0.059201155 0.047585875
0.015132149 -0.011339857 -0.01834912 0.11337334 0.05889274 0.08643771 -0.018000107 0.02281865
-0.07982587 -0.0009472465 0.092364594 -0.0879681 0.041259985 -0.12698479 0.06486927 0.028324205
0.12112296 0.13081524 0.012397312 -0.061861653 0.086890504 0.040450636 -0.0055154446 -0.027021084
-0.10345118 0.116381526 -0.094023675 -0.13404062 -0.13964091 -0.07491184 -0.0855018 0.029212167
-0.14470297 0.10211715 0.10966645 0.12597828 0.06032317 -0.051633105 0.12402611 0.047220197
-0.05261265 -0.10065821 -0.13032557 -0.102461055 -0.091260746 -0.13152584 -0.04181174 -0.019873472
-0.103272244 0.069190554 -0.04160581 -0.07036548 0.08051985 0.083044864 0.0309916 0.106887594
-0.0962415 0.030590912 0.015208235 0.07770525 0.09488718 0.012096018 -0.07853283 0.11975891
-0.0141950715 -0.10065066 0.063593894 -0.11954483 0.048037585 0.036858533 0.05239965 -0.1102341
0.10562214 0.052836087 -0.0627906 0.09647903 -0.011460431 0.06017409 0.083057575 0.14299779
0.010220699 0.08448437 -0.05303415 0.12596972 0.03602838 -0.055716787 0.045210283 0.10865318
00000000: 5cdf fb3d 1eda 013e e7ca cebd 2ddd dabc
00000010: 9aaa c2bd 025b c9bd 93e2 733d d9ae a9bd
00000020: ec0d 073e 7040 423d a5e4 a83b 91b2 b8bc
00000030: d427 0e3d 874c 6fbd e34e 0cbe 5e73 813d
00000040: e92c 343c 20f1 b8bc fd0d 2ebc 89fd 37bd
00000050: dd5b c43d a88a 8a3d 4dfa 973d 8376 8dbc
00000060: 47a8 74bd 424a c1bd a849 bdbc 062a 2cbd
00000070: 5061 f0bd d6ee 083e d56b bebd b918 eebc
00000080: 3f05 043a 3675 fbbc f0fb cc3c 72d3 013e
00000090: bea3 4bbd bfc6 cfbb a332 dd3c 2681 b13d
000000a0: e5a4 b93d 8f42 da3d eb2f ccbd 703c debc
000000b0: 66eb a5bd 0cde abbd 5f7f 1dbc 08cf 1d3c
000000c0: f9e3 9a3d 0d48 12be 5037 7c3d 6041 1f3c
000000d0: 8ad1 ad3d b0bb 32bd 93af 083e 0c5f 11be
000000e0: 6166 5f3d 9321 30bd 3ca3 a43d 0b58 b23d
000000f0: 6c33 81bc 8f44 c43d ac7d d7bd 7fc8 88bd
00000100: 02e5 e63d c21c 0fbd 7790 df3d 3785 f63c
00000110: 4baa db3c 1e2a d33d c9ef 8abd 3e41 1d3d
00000120: 8024 13bd bbd0 613c 2af3 9ebd 1b4c fd3d
00000130: d560 733d 7072 ed3c 56c0 8cbd f07b 553c
00000140: efc6 bbbd 6513 edbd ef7f 6c3b 9b87 6d3b
00000150: e91e 61bd 2217 b03c 469d 30bd 49ba d53a
00000160: f40e ddbb 6a15 9ebd b24f 623d 4b8d a23d
00000170: 13e9 34bc 1794 04be 638e 533d fdcf 03bd
00000180: 4803 763d c0f9 a8bd 63fc d73d 5964 b83d
00000190: b3f9 afbd 5a78 1fbd 7bb3 6ebd 66bd 14bd
000001a0: 1043 08bb 3c3f 943d 767a b33d a69a 3fbc
000001b0: c5a8 f9bb 18de da3d 8870 103d e0d6 edbd
000001c0: d725 433d bb08 6f3b c196 6abd 80d0 c0bd
000001d0: 374e a83b d59e 13bd d66c 7ebd 1fc0 cd3d
000001e0: 6ae2 c7bc 9128 ba3c 80ae f33c a15f 9a3d
000001f0: d781 c23d 4692 eb3d a460 9cbc 887a f53d
00000200: 6147 83bd c96d 33bd 6588 4abd 164c 66bd
00000210: 3aa4 293c efb7 cbbd 1282 1cbd deda 18bd
00000220: 2989 5fbd 6bca af3c dca5 3f3d b09d 4c3d
00000230: 40c0 80bb c22e d93d e2c7 f63c 9659 2abd
00000240: 88bb b83c d217 163d 1228 6c3d 92e5 9f3c
00000250: 2327 0b3d a1b9 a3bd 0f63 d23d ef98 dc3d
00000260: 6190 46bd 48ad d2bd 10d6 913d 375a 02bd
00000270: 745a ba3d e19b 68bd e9c0 a8bd 7eed 103e
00000280: af53 7a3d 8d12 48bc f93c bcbd bc4f a0bd
00000290: a70c 173a 2dda 6bbd e97c 723d 68e9 423d
000002a0: d5ec 773c cfca 39bc e550 96bc 4830 e83d
000002b0: 8439 713d 4106 b13d f674 93bc 2dee ba3c
000002c0: bf7b a3bd a350 78ba a629 bd3d 9f28 b4bd
000002d0: 3b00 293d 4d08 02be 2eda 843d 2a08 e83c
000002e0: 500f f83d 6ef4 053e 181e 4b3c a562 7dbd
000002f0: a6f3 b13d 91af 253d e7ba b4bb 525b ddbc
00000300: 36de d3bd 7059 ee3d 7c8f c0bd f241 09be
00000310: 07fe 0ebe 616b 99bd 911b afbd 5b4e ef3c
00000320: 042d 14be cc22 d13d ce98 e03d 7300 013e
00000330: 6e15 773d 3c7d 53bd 6701 fe3d f769 413d
00000340: 5d80 57bd e425 cebd 1174 05be 1ad7 d1bd
00000350: eae6 babd b6ae 06be c942 2bbd b1cd a2bc
00000360: 6680 d3bd c7b3 8d3d db6a 2abd c71b 90bd
00000370: 97e7 a43d 6d13 aa3d 19e2 fd3c e2e7 da3d
00000380: 431a c5bd cb99 fa3c f62b 793c ee23 9f3d
00000390: 3654 c23d 602e 463c d2d5 a0bd 2944 f53d
000003a0: 7292 68bc ef21 cebd 843d 823d ebd3 f4bd
000003b0: 0fc3 443d f9f8 163d 04a1 563d 6ac2 e1bd
000003c0: 6c50 d83d a76a 583d 5c98 80bd cc96 c53d
000003d0: 88c4 3bbc 1b79 763d 171a aa3d 036e 123e
000003e0: b874 273c 2406 ad3d 563a 59bd 35fe 003e
000003f0: 7f92 133d 4937 64bd 6b2e 393d 8f85 de3d

lstm.weight_hh_l1 f4 [256, 64]
-0.030005546 -0.023947274 -0.11918436 0.11002236 -0.06268703 -0.06270101 -0.12893419 0.034562714
0.09909153 -0.10765511 -0.014969458 0.13734883 -0.07277699 0.031618275 0.060925737 -0.008813625
0.052474592 -0.06458704 -0.046396326 -0.032219127 0.017635088 -0.013607244 0.015732184 0.038423654
-0.076967426 -0.10281482 0.14339034 -0.08461992 0.02381004 -0.060918085 -0.06935368 -0.0859548
-0.03030655 0.074484624 0.013459407 -0.01587215 0.0379487 -0.02615437 -0.046212412 0.07425196
0.08505025 -0.10625304 0.070263974 0.004625204 0.03553354 0.08794834 -0.023393828 0.09044101
0.020586783 0.11020458 -0.044129334 0.1370266 0.06473954 -0.046288144 -0.094704755 -0.012865176
-0.07912896 0.09953663 0.041972578 -0.0010623807 -0.0039788284 -0.05454257 0.0907571 -0.036891006
0.07035962 -0.035627015 -0.08922331 0.08213044 -0.05410775 -0.029416705 0.10110736 0.0976886
0.012872049 0.11120108 -0.07728175 0.10462912 -0.096548446 -0.11968582 -0.052625958 0.033639703
-0.06008316 0.016374243 -0.037638623 -0.07629086 -0.09988244 0.11342504 -0.115784116 0.08171145
-0.013088434 0.03965888 0.09183683 0.050496254 0.01407622 0.09284573 -0.02070451 0.010524569
0.041870672 -0.038364477 -0.1018209 0.08662762 -0.028326644 0.12965114 0.0694348 0.011025327
-0.057865836 -0.034521747 -0.07975513 0.13084663 0.058310263 -0.05070382 -0.053297132 -0.102375634
-0.019301383 0.081484914 -0.077042885 0.015608582 0.09456188 0.08604627 0.10412777 0.037252758
0.051261373 -0.092478104 -0.07911841 -0.06784504 -0.06628649 0.09717186 0.009198 0.011478978
0.10240136 0.07861563 -0.1193073 0.07933253 -0.117365606 0.118864805 -0.12735283 -0.11890453
-0.010141539 -0.05451525 -0.06946879 -0.07501249 -0.1074886 -0.122179605 0.011816452 0.09139291
-0.07715101 0.05616584 0.074489154 -0.066896215 0.06284623 -0.010626441 -0.05700567 0.12066526
0.024692189 0.02785916 -0.09539232 -0.0506458 0.06544284 0.122560665 -0.096485995 -0.09604602
-0.13845225 -0.07195839 0.124709465 0.12456067 -0.0050604003 -0.076046616 -0.014442714 0.061796
0.07852939 0.05806927 -0.067514434 0.08186946 0.002871613 -0.029069964 0.13282529 0.069485776
0.1268486 -0.009806426 -0.13500062 -0.014556668 -0.1386567 0.072039336 -0.054261427 -0.102357484
-0.078632064 -0.06545474 -0.08486524 0.042712193 0.059883025 0.07656416 0.10645372 0.06971958
-0.02052726 0.032260817 -0.10443008 -0.058174327 0.0783524 -0.104342565 -0.043018583 0.07707094
-0.02627932 0.03507638 -0.0014468087 0.068434015 0.11121735 -0.04620902 0.050363656 0.026916169
0.059502184 -0.10033935 -0.043860856 0.034407143 -0.025467942 -0.07881763 0.08203272 0.0035334257
0.058752898 0.047388434 0.060666237 0.06517196 0.08451159 0.074802354 0.035158206 -0.11857233
-0.09260039 -0.04499832 0.11185777 0.011726881 -0.03731506 0.09164244 0.07376021 0.008570433
0.09979066 -0.094154105 -0.11006721 -0.021135803 0.023754483 0.07222002 -0.018604483 0.103909865
0.08018024 -0.1059757 0.08980319 -0.07645472 -0.044314496 -0.027315125 0.045536295 -0.09263982
-0.034071144 0.041658264 0.07351982 0.12563914 -0.058391705 0.084075734 -0.016623655 0.117349096
00000000: 31ce f5bc 132d c4bc ee16 f4bd 6753 e13d
00000010: 0f62 80bd 6369 80bd 5307 04be a291 0d3d
00000020: 80f0 ca3d 487a dcbd 7542 75bc 2ca5 0c3e
00000030: 1a0c 95bd 2a82 013d 448d 793d 0667 10bc
00000040: 99ef 563d 3646 84bd 130a 3ebd 34f8 03bd
00000050: 7677 903c ebf0 5ebc c8e0 803c 1f62 1d3d
00000060: 19a1 9dbd 9490 d2bd ebd4 123e 354d adbd
00000070: 460d c33c 3e85 79bd 4d09 8ebd 1209 b0bd
00000080: 7145 f8bc 658b 983d d884 5c3c 5006 82bc
00000090: 1970 1b3d b041 d6bc 3a49 3dbd 6911 983d
000000a0: d32e ae3d 329b d9bd 8fe6 8f3d 068f 973b
000000b0: 9e8b 113d 421e b43d 6aa4 bfbc 2339 b93d
000000c0: 9da5 a83c f0b2 e13d f6c0 34bd b350 0c3e
000000d0: 2a96 843d a398 3dbd 91f4 c1bd 76c8 52bc
000000e0: 5d0e a2bd dcd9 cb3d 70eb 2b3d 953f 8bba
000000f0: d560 82bb 0868 5fbd dcde b93d 061b 17bd
00000100: b418 903d a2ed 11bd b6ba b6bd 0134 a83d
00000110: 17a0 5dbd 4dfb f0bc 6011 cf3d f610 c83d
00000120: 49e5 523c 64bd e33d e545 9ebd cb47 d63d
00000130: 31bb c5bd d71d f5bd 518e 57bd c9c9 093d
00000140: c219 76bd 4723 863c f52a 1abd 623e 9cbd
00000150: 2a8f ccbd 634b e83d 3920 edbd 5558 a73d
00000160: df70 56bc 5a71 223d f314 bc3d 29d5 4e3d
00000170: f29f 663c e725 be3d 819c a9bc 3e6f 2c3c
00000180: 9580 2b3d 1224 1dbd 7a87 d0bd d269 b13d
00000190: 470d e8bc 45c3 043e d533 8e3d 93a3 343c
000001a0: ba04 6dbd ad66 0dbd a856 a3bd a9fc 053e
000001b0: bed6 6e3d cfae 4fbd 184e 5abd 51aa d1bd
000001c0: ef1d 9ebc 90e1 a63d a9c8 9dbd 23bb 7f3c
000001d0: a9a9 c13d 0739 b03d f140 d53d 5996 183d
000001e0: 72f7 513d 2965 bdbd d508 a2bd 57f2 8abd
000001f0: 36c1 87bd 0a02 c73d 35b3 163c 5312 3c3c
00000200: ceb7 d13d 3b01 a13d 6357 f4bd 1879 a23d
00000210: 615d f0bd 646f f33d c868 02be 3884 f3bd
00000220: b328 26bc 624b 5fbd a745 8ebd 26a0 99bd
00000230: fc22 dcbd 4d39 fabd cb99 413c 352c bb3d
00000240: 5901 9ebd 270e 663d c58d 983d e200 89bd
00000250: 86b5 803d 861a 2ebc c77e 69bd 591f f73d
00000260: 4647 ca3c e538 e43c 0c5d c3bd f871 4fbd
00000270: e506 863d 1601 fb3d 739a c5bd c7b3 c4bd
00000280: 6dc6 0dbe ec5e 93bd ad67 ff3d aa19 ff3d
00000290: b7d1 a5bb 54be 9bbd 22a1 6cbc cd1d 7d3d
000002a0: 04d4 a03d 0bda 6d3d 0245 8abd 2dab a73d
000002b0: ac31 3c3b 2224 eebc 5a03 083e 8f4e 8e3d
000002c0: 99e4 013e 22ab 20bc 9a3d 0abe 177f 6ebc
000002d0: 06fc 0dbe 5c89 933d 3b41 5ebd cda0 d1bd
000002e0: d909 a1bd 220d 86bd d4cd adbd fbf2 2e3d
000002f0: e747 753d accd 9c3d 6804 da3d 24c9 8e3d
00000300: c928 a8bc eb23 043d 70df d5bd 3448 6ebd
00000310: 3977 a03d 8eb1 d5bd 4134 30bd 5ed7 9d3d
00000320: ba47 d7bc 40ac 0f3d d8a2 bdba 2227 8c3d
00000330: ecc5 e33d ab45 3dbd 1f4a 4e3d 4c7f dc3c
00000340: 90b8 733d b87e cdbd 71a7 33bd 81ee 0c3d
00000350: 25a2 d0bc 236b a1bd c500 a83d 0c91 673b
00000360: e1a6 703d 601a 423d 297d 783d e078 853d
00000370: 6a14 ad3d fa31 993d 0d02 103d 0dd6 f2bd
00000380: 46a5 bdbd 2950 38bd b015 e53d 1b22 403c
00000390: add7 18bd 08af bb3d 980f 973d 006b 0c3c
000003a0: 0c5f cc3d ded3 c0bd eb6a e1bd fe24 adbc
000003b0: c398 c23c 17e8 933d 6e68 98bc b2ce d43d
000003c0: 8a35 a43d ca09 d9bd bcea b73d 4b94 9cbd
000003d0: 1e83 35bd f8c3 dfbc 4484 3a3d f2b9 bdbd
000003e0: 2f8e 0bbd dba1 2a3d 8f91 963d 8ca7 003e
000003f0: 242c 6fbd e62f ac3d 552e 88bc b954 f03d

lstm.bias_ih_l1 f4 [256]
-0.00619957 -0.08861222 0.09688928 -0.008044898 0.14623721 -0.10161129 -0.14681144 0.067122385
0.016212808 0.032487053 0.117127895 0.10524148 0.053528164 -0.14148925 -0.1009658 0.021757614
-0.07513466 0.0846418 0.0042051505 0.017430052 0.11486031 -0.111410566 0.070546634 -0.044686403
0.062650725 0.006343748 0.11275272 0.07386282 -0.07060937 -0.081488244 0.10736794 -0.040718585
0.08702543 0.0044830693 -0.01722571 -0.09159794 -0.009407507 -0.027424313 -0.09834733 0.08355449
0.00035364405 0.08385127 0.041170835 -0.10162216 0.058491983 -0.06532437 -0.05480054 -0.07680172
0.03270285 -0.0948504 0.018610429 0.062030926 -0.062584445 -0.06986952 0.029326167 0.07470619
-0.026927546 0.010699103 -0.015446119 0.057021778 0.0659551 0.04286551 0.097955145 0.046533607
-0.010358595 0.06577803 0.047767535 -0.12241096 0.02164209 0.08979967 0.07165808 -0.004294755
0.02428025 0.03993224 -0.054894757 0.0009327118 -0.07847357 0.085286506 0.09162795 0.062438685
-0.05203614 -0.023673378 0.035430823 0.09839606 -0.12989965 -0.118132405 -0.018372256 -0.044599984
-0.019677587 -0.12281612 -0.01950544 -0.0667329 0.06399698 -0.053551733 -0.085284725 -0.1304569
-0.108812936 -0.11510355 -0.03375073 -0.12667197 -0.09088587 0.03498957 -0.06522769 0.013900451
0.08218618 -0.0341961 0.0007042535 -0.13757159 -0.08161082 0.025514247 -0.03467205 -0.105157204
0.025532452 0.08625118 0.019874066 0.03852435 0.06567412 0.04325709 0.06520361 -0.12053282
-0.06918785 -0.046898156 0.057919893 -0.07851868 0.12370815 0.08833997 0.05336373 -0.06636204
0.13057277 0.04499367 0.09104776 0.011575532 -0.14548917 -0.031667322 -0.018076599 0.010150605
0.10542712 -0.035504624 0.079252504 0.09985056 -0.054425966 -0.09215983 0.087067716 -0.007981242
0.020421322 0.0131379 0.11026511 0.05690316 0.015701309 -0.022138018 -0.086279474 0.046891704
-0.01058744 0.06929178 0.018795226 -0.060705245 0.080744326 0.121625796 0.13448131 -0.058635425
-0.057462387 0.04636418 -0.026105255 0.071978986 -0.014390614 -0.09923135 0.05397042 -0.008075146
0.093965255 0.004487762 0.08421459 0.10229129 0.00058587897 -0.12296939 0.07321356 -0.0014882036
0.06140666 -0.07854672 -0.059877466 0.12757458 -0.1321987 0.060757346 0.03404001 -0.058384046
0.058339007 -0.1431971 -0.13892224 -0.07835268 -0.057328247 -0.11103686 0.04527401 0.025465447
0.11066541 -0.042297915 -0.04801225 -0.104168825 0.10760812 0.07113628 0.08799618 -0.09502839
-0.09298076 0.12452981 -0.06794563 -0.068446666 -0.09041809 -0.044770695 0.0816015 0.11309338
-0.12562105 -0.112925686 -0.0649526 -0.10215861 -0.046005584 -0.12367618 -0.074822225 0.13697898
0.10345004 -0.03882588 -0.0310137 -0.020797396 -0.0026712078 0.083574206 0.0107721975 -0.08355685
0.051674355 -0.07354391 -0.096936524 0.0029531145 0.075152725 -0.08492684 -0.08176858 -0.055580925
-0.1155964 -0.054025345 0.013991297 -0.042025775 -0.04855865 -0.0155867385 0.03906962 0.10615077
-0.10001393 0.040151235 0.08168787 0.02970171 0.10797784 0.051556792 0.0719189 0.08287013
0.026605438 -0.04970332 0.1235345 0.101044424 0.010811863 0.060779914 0.03957577 0.053125594
00000000: c325 cbbb 537a b5bd e36d c63d bfce 03bc
00000010: 35bf 153e 9419 d0bd bd55 16be 7677 893d
00000020: b9d0 843c 2511 053d c0e0 ef3d d888 d73d
00000030: 5940 5b3d 8fe2 10be 28c7 cebd 063d b23c
00000040: 33e0 99bd ae58 ad3d 5ccb 893b 78c9 8e3c
00000050: e23b eb3d 392b e4bd c17a 903d 1709 37bd
00000060: 064f 803d 37df cf3b e6ea e63d 6445 973d
00000070: a59b 90bd 4fe3 a6bd b9e3 db3d 88c8 26bd
00000080: 633a b23d b6e6 923b ef1c 8dbc b397 bbbd
00000090: f221 1abc f4a8 e0bc 536a c9bd 9e1e ab3d
000000a0: 4d69 b939 37ba ab3d c0a2 283d 471f d0bd
000000b0: 4a95 6f3d c9c8 85bd 8876 60bd 384a 9dbd
000000c0: 6cf3 053d ed40 c2bd e674 983c 2414 7e3d
000000d0: 462c 80bd c017 8fbd 6e3d f03c 8fff 983d
000000e0: 2897 dcbc 4a4b 2f3c b811 7dbc ab8f 693d
000000f0: 7813 873d bf93 2f3d b59c c83d 069a 3e3d
00000100: 19b7 29bc a2b6 863d e4a7 433d 99b2 fabd
00000110: c14a b13c e4e8 b73d 79c1 923d 04bb 8cbb
00000120: 60e7 c63c fd8f 233d 53d9 60bd 3b81 743a
00000130: c0b6 a0bd b1aa ae3d 6fa7 bb3d b5bf 7f3d
00000140: d923 55bd acee c1bc e91f 113d e083 c93d
00000150: 6a04 05be 67ef f1bd 6a81 96bc 79ae 36bd
00000160: e432 a1bc 0587 fbbd dfc9 9fbc 42ab 88bd
00000170: d910 833d 1059 5bbd c2a9 aebd 7e96 05be
00000180: 51d9 debd 69bb ebbd 353e 0abd 4cb6 01be
00000190: 5f22 babd 3951 0f3d 1896 85bd b8be 633c
000001a0: 3a51 a83d 3611 0cbd a79d 383a 91df 0cbe
000001b0: 9323 a7bd 4103 d13c 4804 0ebd a95c d7bd
000001c0: 6f29 d13c 75a4 b03d f0ce a23c b5cb 1d3d
000001d0: 2780 863d 592e 313d 7889 853d e9d9 f6bd
000001e0: 5cb2 8dbd 4818 40bd 693d 6d3d 67ce a0bd
000001f0: b35a fd3d 96eb b43d ed93 5a3d d2e8 87bd
00000200: deb4 053e 484b 383d 3f77 ba3d 4da7 3d3c
00000210: 1dfb 14be 98b5 01bd 6015 94bc b94e 263c
00000220: 2dea d73d 4c6d 11bd 234f a23d 737e cc3d
00000230: c3ed 5ebd 4bbe bcbd 8f50 b23d c1c3 02bc
00000240: 9e4a a73c 5940 573c add2 e13d 4a13 693d
00000250: 08a0 803c ca5a b5bc 4bb3 b0bd 8411 403d
00000260: f176 2dbc d9e8 8d3d 72f8 993c 10a6 78bd
00000270: 485d a53d f216 f93d 78b5 093e b32b 70bd
00000280: ae5d 6bbd 5ee8 3d3d b0da d5bc b869 933d
00000290: 9cc6 6bbc ce39 cbbd 1610 5d3d 9e4d 04bc
000002a0: db70 c03d 140e 933b b378 ac3d 197e d13d
000002b0: ac95 193a 60d7 fbbd fef0 953d d40f c3ba
000002c0: 8d85 7b3d 1add a0bd 1342 75bd e9a2 023e
000002d0: 195f 07be b2dc 783d 8a6d 0b3d 1c24 6fbd
000002e0: e2f4 6e3d 43a2 12be a241 0ebe 5f77 a0bd
000002f0: 06d1 6abd 4b67 e3bd 3e71 393d ea9c d03c
00000300: 8ca4 e23d 9440 2dbd 7ea8 44bd 7756 d5bd
00000310: a561 dc3d e6af 913d 5737 b43d 3f9e c2bd
00000320: b26c bebd 7c09 ff3d 1427 8bbd c42d 8cbd
00000330: 1f2d b9bd 7a61 37bd b01e a73d 819d e73d
00000340: cea2 00be 9545 e7bd de05 85bd 8938 d1bd
00000350: 5a70 3cbd f049 fdbd 653c 99bd 3844 0c3e
00000360: 9ddd d33d e307 1fbd 7110 febc 4d5f aabc
00000370: 6e0f 2fbb f428 ab3d df7d 303c db1f abbd
00000380: 7da8 533d 319e 96bd a886 c6bd 0a89 413b
00000390: ace9 993d 20ee adbd 4976 a7bd d3a8 63bd
000003a0: cebd ecbd ae49 5dbd c13b 653c 3823 2cbd
000003b0: 6fe5 46bd 855f 7fbc 7707 203d 9365 d93d
000003c0: 1ad4 ccbd 9f75 243d f84b a73d 0051 f33c
000003d0: 7c23 dd3d 372d 533d 374a 933d d1b7 a93d
000003e0: a6f3 d93c b595 4bbd a8ff fc3d 61f0 ce3d
000003f0: 3d24 313c 5cf4 783d 341a 223d 399a 593d
